ckpt/multiphase_skynet.pt (torch, 365557 bytes, 134 tensors)

conv1.weight f4 [8, 3, 7]
00000000: 31ce e73b 608e ae3d b0fd ebbd fe87 12be
00000010: 4306 d43d 8771 723e 2092 bbbe 70aa 00be
00000020: 8260 973c cee2 92be 2d8b 083d 0793 403e
00000030: f11f d7bd f311 293e e566 e63d 8252 023e
00000040: 5bf9 5b3d c98e 67bd 12ab f0bd 94b3 85be
00000050: 5a89 7bbe 88a0 2bbe 3309 16be 7896 d13d
00000060: 252a 4e3e 4d2f 263e 0cb6 37be 8b06 913d
00000070: c5c3 babd 0ef3 e3bd 9d63 95bd 4392 543e
00000080: 6872 25bd 980a b23d c885 2b3d c6d5 a83e
00000090: c8b6 4b3e d06e fb3d 77ab 153e 1668 853d
000000a0: d255 acbe fd71 dcbe 14e1 8cbe 6f22 c93c
000000b0: 4811 3a3e 197a b03d f482 7b3e 44c4 6fbd
000000c0: 1d52 e73d 35f0 583e 0d64 dbbd 1f01 ea3d
000000d0: 26f8 debd 8c0e 4e3e 37b8 893e e652 9d3e
000000e0: d6c1 debd f230 203e 5b9b d1bd 9fb2 903c
000000f0: 8027 84bd c1de 18be c554 07be 442d 243e
00000100: 4570 163e 7074 483e 2219 09be 6076 c33d
00000110: 9c91 22be 8b57 9e3d dd3e 203e e68d 403e
00000120: 1c6c 5a3e 9f9c 6e3d 6518 823d 9e63 4bbd
00000130: 5291 433e 3c62 5bbe c72d 23be 3c9b d1bd
00000140: 56e9 77be 53cd cbbd cc24 383e 5b8e 8c3e
00000150: d0ea 233c 6c2a b0bd 280a a8bd 3a40 55bd
00000160: d933 02be 3202 323b 1417 2fbe 35ac 66bd
00000170: 1e86 43be 4b03 803d 3636 90be d99c b7be
00000180: d752 81bd d5de 813e 7350 73be 936b f4bd
00000190: 5698 86bd 544f 1e3e e460 e5bd a0c0 13be
000001a0: 6ba7 6d3d de63 823d 030d fabd 6d8d 3cbd
000001b0: e84c 32be f765 e9bc f494 823c e12f a93d
000001c0: 0843 7abe c6f6 10be 3eb0 7bbc 029d 773e
000001d0: 2cf7 0cbd 94ae ee39 6d81 7e3d 281d 2ebe
000001e0: b819 a7be 262a 35be 8d8b 3dbe 3dab 04be
000001f0: f504 343e 2033 c93e 344d 6fbc e360 bd3c
00000200: 7b42 efbc f6f4 343d d691 75be 0eb7 903d
00000210: 9a69 a8be 89c7 b73d 7fd2 ad3d 6b7f 2ebe
00000220: f719 30be ef9d f2bc 35b5 dcbd 7bbd 4ebe
00000230: 951f 90be e647 5ebd 1998 46be df2f 27be
00000240: 4818 37be b516 8b3d 20e3 a03e 1ab7 11bd
00000250: 15e8 203d fec5 32bc e3d3 36be 0489 cd3c
00000260: a751 9f3d 7b9f fdbd b34f 65be eff2 f63d
00000270: dc25 3f3e 4337 15be e9a7 bc3d 0044 38be
00000280: 899b 4cbe 9d9a b2be fab9 5bbc d447 7fbe
00000290: 6c06 d23d 443b 273e 57c3 d63c d853 513e
0.0070741405 0.085232496 -0.115229964 -0.1430969 0.10352757 0.2367612 -0.36634922 -0.12565017
0.018478636 -0.28688663 0.033335853 0.18806086 -0.10504139 0.16510753 0.11250094 0.12726787
0.0537046 -0.056532655 -0.11751379 -0.2611357 -0.24564114 -0.16760457 -0.14651947 0.10233778
0.20133264 0.16228981 -0.17940539 0.07081326 -0.09119371 -0.111303434 -0.0729439 0.2075892
-0.04039231 0.08693427 0.04187563 0.32975596 0.19893944 0.12276995 0.1461619 0.065139934
-0.33659226 -0.43055716 -0.2751547 0.024552552 0.18170655 0.08617038 0.24561673 -0.058536783
0.11294959 0.21185382 -0.107124425 0.11425995 -0.10887174 0.20122737 0.26898357 0.3072731
-0.10876815 0.15643671 -0.1023471 0.017663298 -0.064528465 -0.14928724 -0.13215931 0.16032892
0.14691265 0.19575667 -0.13388494 0.095440626 -0.15875858 0.07731541 0.1564898 0.1880413
0.21330303 0.058254834 0.06352309 -0.04965555 0.19098404 -0.21424192 -0.15935431 -0.10234687
-0.24210104 -0.09951272 0.17982787 0.2745236 0.010004714 -0.08601841 -0.08205062 -0.052063204
-0.12715091 0.0027161953 -0.17098647 -0.056316573 -0.1909413 0.06250628 -0.2816636 -0.35861853
-0.063146286 0.2536532 -0.23761158 -0.11934581 -0.065720245 0.15459949 -0.11200121 -0.1442895
0.05802099 0.063667044 -0.12209513 -0.04603331 -0.1741215 -0.028491003 0.015940167 0.08261085
-0.24439633 -0.14156637 -0.015361844 0.24180987 -0.03441541 0.00045524968 0.06213515 -0.1700331
-0.3263681 -0.1769186 -0.18510266 -0.12955947 0.17580016 0.39296818 -0.014605809 0.023117488
-0.029206505 0.044178925 -0.23981413 0.07066165 -0.32893068 0.08973605 0.084874146 -0.17040794
-0.17197405 -0.029616324 -0.1077675 -0.20189469 -0.28149095 -0.054267786 -0.19393958 -0.16326855
-0.17880356 0.067914404 0.31423283 -0.03557501 0.03928383 -0.010911463 -0.17854266 0.025089748
0.07779246 -0.12383934 -0.22393684 0.12058055 0.18666786 -0.14571862 0.09211714 -0.1799469
-0.19981207 -0.34883586 -0.0134110395 -0.24929744 0.10255131 0.16331202 0.026216192 0.2044214

conv1.bias f4 [8]
00000000: 99b0 113d f8cf d9bd 8ea4 e3bd cca1 043e
00000010: 6fcd 673e 70be e1bd 60b4 eabb ced3 83be
0.035568807 -0.1063537 -0.11115371 0.12952346 0.2263696 -0.11022651 -0.0071626157 -0.25747532

bn1.weight f4 [8]
00000000: d764 673f 2e26 6f3f 88b5 463f 65fd 743f
00000010: 3f91 813f 7574 933f 12aa 9f3f 6e69 813f
0.90388244 0.9341763 0.77620745 0.9569915 1.012245 1.1519915 1.2473776 1.01103

bn1.bias f4 [8]
00000000: 706b 39be 53f1 f23e b907 243d 6148 2f3e
00000010: 0463 b3be 3a19 70bd a6eb 1abe 7bd5 87be
-0.1810739 0.4744974 0.040046427 0.17117454 -0.3503648 -0.058617808 -0.15128955 -0.2653006

bn1.running_mean f4 [8]
00000000: 147c 89bb 038d c7bd 8baa 76bd 98f5 363e
00000010: 5c8f 053e f74e 1fbe 3988 bebd 0a6b 97be
-0.0041956995 -0.09743693 -0.060221236 0.17867124 0.13042969 -0.15557466 -0.09303326 -0.29573852

bn1.running_var f4 [8]
00000000: b3dd c03c b231 263b e658 593d 5485 543d
00000010: d167 ef3d 0afe e73c 2b61 ca3d 031e b33c
0.023543214 0.002535921 0.053063296 0.051884964 0.11689723 0.028319377 0.098818146 0.021864897

conv2.weight f4 [8, 8, 7]
00000000: b85c 803e cffe 833e 26c7 be3d dff3 de3d
00000010: edbd 9abc 1070 6fbe 6708 19be d324 42bd
00000020: d2b6 c43d b74f cdbd 9bc0 303e 09b4 ee3d
00000030: 03f9 0d3e 0f28 fbbd 7a7d 093d 4772 b03d
00000040: 6cf8 b73d e540 a5bd 6ce7 16be f4ca d33d
00000050: 8be0 0dbc 969c abbd 8233 4dbb 4e72 aeba
00000060: 5737 423d 8cfc b73c 3744 61bd 6477 243e
00000070: 6a46 813e 90f5 8a3d d783 063e 95ec 933d
00000080: 42f8 013e 97cc 0c3e c301 0abe ff41 6bbd
00000090: cf13 f73d 7701 583e 8e13 c33e bcc9 c83e
000000a0: 27e2 bd3e 0ae0 e03e 9fb7 373e 3c09 933d
000000b0: 78b1 48bd 36b8 113e 102d 043d 9f15 13be
000000c0: 481a 7bbd cb9a 04bd 86a0 bebd 7f4a 843c
000000d0: c91a 9fbd aeda 923d d05e a6bd d9c3 11be
000000e0: ed48 12bd b5f6 7abd 2564 58bd a8be d03c
000000f0: 6f19 6cbe e445 24be 4df6 f33b 6382 f23d
00000100: 41df e73c 5c1d db3d 40f8 543e b1da 5c3e
00000110: 1355 af3c e5a8 203e 7569 1b3e f39b 643e
00000120: 836b 1b3e 4f82 b13d ae9d 9a3d 2a57 c83d
00000130: 576e d8bd 868c 09be bab6 f4bd a26d 0b3d
00000140: 7525 2e3e 17bc 83bd 750c be3c 6283 eebc
00000150: e5a9 39be 34d6 d5bd cd5c 393e 4e6b bd3c
00000160: be23 643d 5a3b 363d 87e8 bdbd 9c62 0fbd
00000170: 4f53 2cbe 9e80 06be 4e53 a2bd 79c8 31bd
00000180: 8362 5c3e 7b98 28be b091 293d 7dcc 353d
00000190: 66d1 753c 3a15 6d3d 3861 23bd 5814 c2bd
000001a0: 5f34 42be 17cb 023e d4c9 b5bd 6cd8 a53d
000001b0: 1710 e93d d79e 1abd 2b62 01bf 2490 45bd
000001c0: 9ca1 4bbe 86b1 54be 7b6d 14be f029 c53c
000001d0: 8262 babc 42e7 1bbb e120 4c3d bad2 83bd
000001e0: e0b7 123c 6222 50bb 9f48 783c b1aa 2ebe
000001f0: 6590 24be c630 683d 308a b1bd b9e9 1cbe
00000200: 9c45 ee3c 4691 58be a6bb 8cbb abfa ba3b
00000210: cc47 e0bc 8343 653d b2ff 32be e7b7 6cbc
00000220: 99e3 30be 824b 1dbd 67b4 6dbe 2a97 ffbd
00000230: 15ce 7bbd 2cea 973d 67a7 8e3c db4f 05bd
00000240: e9b1 073e 4918 9a3d 9cbb 413e 1aa8 c3bd
00000250: 1a5e 03be fae9 edbd 2e1b 98bd 703f 913b
00000260: 38fd 14be 4fe4 b5be 5ac2 a1be bffe cc3d
00000270: 0a67 82be 520f 03be d6b0 86be 2c55 b5bd
00000280: fa97 26be d9dc 863e 8d54 a8be 6fc1 fbbc
00000290: b19d 12be 0025 7a3d 1b54 383d 6690 31be
000002a0: 31f9 df3d 52d0 023e 54fb 1d3d 98f2 01be
000002b0: a10f 33be 7353 62bd a684 2fbe 9638 51bd
000002c0: 0497 10bd 50b0 d73d eebe 813d 91e9 c33c
000002d0: d839 70be 4fb6 783d 2752 ffbd 50d0 85bb
000002e0: 4e77 59bd 9b3a 823d a858 743b f9cf f43d
000002f0: 9240 cabd 6891 713d 551c a2bd aa63 62bd
00000300: 2986 e53d 1915 4e3b 3172 f93d eef9 9ebd
00000310: 0cc0 203e 43fd e6bb cecb 1d3d 89a5 c33c
00000320: 4dab fbbc c64c 30be d8bc b6be 29e8 913e
00000330: 5f66 de3e e410 0a3c c991 7f3d 54ff 0b3d
00000340: 96aa 15be 8372 723d ddfa 823e e5ba 6d3e
00000350: 9c6e 693e 12ce 7e3d 30ea d5bd 711e 3ebe
00000360: 69c3 78be 4f9c 343e 93b0 1f3e c97c 113e
00000370: 8c2f 053e 3d00 05be 6b2b a43c dc4b 82be
00000380: bdb6 113e f5a4 59be 140c 4cbe a1e8 383e
00000390: 39dd 28be 36f5 df3d f477 1cbd b7b6 8c3e
000003a0: 6f03 0c3e 4ba2 ea3d 6304 4f3e 5d48 443d
000003b0: a03d 643d c028 693e d56a 1f3d 4a01 023e
000003c0: 7b9d 63bd 7bb1 793d c456 d93d ed35 cc3c
000003d0: f55c 2fbc 4da4 19be 6f0c abbd 0169 033e
000003e0: b8de 7dbd db6b 783c 75c6 98bd fb99 85bd
000003f0: 0d90 03be 3424 163d a621 a13d c7be 8ebe
0.2507074 0.2578034 0.09315328 0.108863585 -0.018889392 -0.23382592 -0.14944611 -0.0473984
0.09605183 -0.1002497 0.17260973 0.11655433 0.13864522 -0.122635 0.03356693 0.08615547
0.089829296 -0.08069018 -0.14736718 0.103414446 -0.008659492 -0.08379476 -0.0031311219 -0.0013309212
0.047416057 0.02245929 -0.054996695 0.16061169 0.25249034 0.067851186 0.1313623 0.07222859
0.12692359 0.1374992 -0.13477235 -0.057435986 0.12064325 0.21094309 0.38100857 0.3921641
0.37086603 0.43920928 0.1794114 0.07179496 -0.048997372 0.14230427 0.032269537 -0.14363717
-0.06130436 -0.032374185 -0.09307961 0.016148804 -0.07768781 0.07170616 -0.08123553 -0.14234866
-0.03571408 -0.061270434 -0.05282988 0.025481537 -0.23056577 -0.16042286 0.007445133 0.118412755
0.028304698 0.10698959 0.20797825 0.21567799 0.021402871 0.15689428 0.15176947 0.22325115
0.15177731 0.086674325 0.07549606 0.0978225 -0.10567921 -0.13432512 -0.11948915 0.0340401
0.17006476 -0.0643236 0.0231993 -0.029115383 -0.18131216 -0.10441247 0.18101807 0.023122456
0.05569815 0.044490196 -0.09272867 -0.03500615 -0.16828655 -0.13135001 -0.07926045 -0.043404076
0.21521954 -0.16464417 0.041398704 0.04438447 0.015003538 0.05788157 -0.039887637 -0.094765365
-0.1896529 0.12772785 -0.08876386 0.0809792 0.11380022 -0.037749138 -0.5054042 -0.048233166
-0.19885868 -0.20770845 -0.14494888 0.024067849 -0.02275205 -0.0023788963 0.049836043 -0.06436677
0.008954972 -0.0031758775 0.015154033 -0.17057301 -0.16070707 0.05668714 -0.08668935 -0.15323533
0.029085927 -0.21149167 -0.0042948304 0.0057061515 -0.027377985 0.055972587 -0.17480353 -0.014448143
-0.17274322 -0.038402088 -0.2321335 -0.12480004 -0.061475832 0.074177116 0.017413808 -0.03254686
0.13251461 0.07524163 0.18919224 -0.09553547 -0.12828866 -0.11616893 -0.07427059 0.004432611
-0.1454972 -0.35525748 -0.3159359 0.100095265 -0.25469238 -0.12798813 -0.2630679 -0.08854136
-0.16268912 0.26340368 -0.32877007 -0.030731885 -0.14317967 0.061070442 0.045002084 -0.1734024
0.10936201 0.1277478 0.038569763 -0.12690198 -0.1748643 -0.055255365 -0.17140445 -0.051079355
-0.03530027 0.10531676 0.06335245 0.023915084 -0.23459566 0.060720738 -0.12466841 -0.0040836707
-0.053092293 0.06358834 0.0037284289 0.1195373 -0.09875597 0.05897656 -0.0791556 -0.05527083
0.1120723 0.003144568 0.121799834 -0.07762514 0.1569826 -0.007049234 0.03852444 0.023882644
-0.030721331 -0.17216787 -0.3569095 0.28497437 0.43437478 0.008426879 0.06239489 0.034179047
-0.14615855 0.059191238 0.25582018 0.23215826 0.227961 0.062208243 -0.10445058 -0.185663
-0.24293293 0.17637752 0.15594701 0.14207758 0.13006419 -0.12988372 0.020040235 -0.254485
0.14229865 -0.21254332 -0.19926482 0.18057491 -0.1649064 0.10935442 -0.038200334 0.2748315
0.13673185 0.11456736 0.20216517 0.047920574 0.055722833 0.22769451 0.038920242 0.12695804
-0.055570107 0.060960274 0.10612252 0.024928058 -0.010703315 -0.15004082 -0.08351981 0.12833025
-0.06197998 0.0151624335 -0.07459728 -0.0652351 -0.1284792 0.03665562 0.07867746 -0.27879927

conv2.bias f4 [8]
00000000: 7df3 3fbe 4003 993b 2e4c 01bd 4765 533d
00000010: fbd4 fbbd 03e0 dbbd 4297 cb3d 4344 c33d
-0.18745227 0.004669577 -0.03156679 0.051610257 -0.12296482 -0.10736086 0.099409595 0.09534504

bn2.weight f4 [8]
00000000: a4db 463f 5cba 703f a282 3c3f cb87 423f
00000010: 04a8 8e3f 5358 753f 2b9c 6f3f c003 3d3f
0.77678895 0.9403436 0.7363683 0.75988454 1.1145024 0.958379 0.9359767 0.7383385

bn2.bias f4 [8]
00000000: 3a10 753d b9a0 393e 53d9 96bd 44f2 10bd
00000010: c995 aa3e a08e 91bd 0d52 953e 8d0a 84be
0.059829928 0.18127717 -0.0736567 -0.035387293 0.33317402 -0.07107282 0.29164162 -0.257893

bn2.running_mean f4 [8]
00000000: 0381 4b3f 3379 7f3e ad3d b2bf cdd7 973e
00000010: fec3 cb3d ed48 05bf 2fb5 db3e 075d 5abe
0.7949373 0.24948578 -1.3925072 0.2965683 0.09949492 -0.520644 0.4291167 -0.2132455

bn2.running_var f4 [8]
00000000: 80e5 ab3f 2d85 8e3f ec7c b43f 4683 4a3e
00000010: b280 513f a330 7d3f 62ce 183f 257a 643f
1.3429413 1.1134392 1.4100623 0.1977664 0.81837 0.9890234 0.59689915 0.8924888

conv3.weight f4 [8, 8, 7]
00000000: 3812 32be 296a d5bd 6739 ffbc 3b52 63be
00000010: e7ad 37bd af17 87be d1c5 9fbe f9ca 323d
00000020: 1512 8b3c 8bd0 7f3e 8c24 943d 9819 ef3d
00000030: bd6f b7bb f8bd d13d 0e3f 4abe a864 26bd
00000040: ec25 8cbe a083 bd3d a837 ac3d 7cb5 383d
00000050: 5389 823c fa17 f4bd 8e56 c33a c4a9 8fbc
00000060: 4b69 ebbc c7ce c3bd f6ea 66bd 813b 07be
00000070: 8892 8f3c 3975 573d 94e0 bc3d 0d51 eb3d
00000080: a153 9d3e 0a05 163e f944 ea3d 782f 5a3d
00000090: d71c a53e 2480 493e 8658 883e e322 a93c
000000a0: a457 83bd 7b7c bb3d c0f7 49bd 65b1 5a3d
000000b0: 5523 743d aaec 41bc b53c fcbd c901 9f3d
000000c0: 7fdf ebbd 3c98 2ebd ea87 26bd 52e7 75be
000000d0: f6c6 223e 97e8 1a3d d918 8f3d b9c3 673d
000000e0: f591 053d 4fe8 4b3e 8e35 8f3e e129 623e
000000f0: 7cbf 663d 6c22 2b3d 13af ee3d 0dff a13d
00000100: 48c3 e0bd 9280 323e f929 d9bc d5b5 f53d
00000110: 9477 943d d576 c9bc e3bb 08be 76dd 88bd
00000120: e8e7 afbd aac7 f1bd dd36 853d 400a 44bd
00000130: 6215 abbe eed9 e4bd f032 44bd 4e14 05bd
00000140: 0d98 063e 2232 183e 833b e83d a646 363e
00000150: 4080 5c3c 3444 0fbe 50a3 36be 11dd 65be
00000160: cc53 2fbd de57 bdbd 2115 2dbe ec5a ea3d
00000170: 206b d5bc 6e4d babd 90d4 dd3d 724a 0dbe
00000180: 1b09 8b3c a7b3 d4bc bdd3 623d 99a3 59be
00000190: c3a3 10be da7f 003d 3495 56be 45f2 05be
000001a0: e35b 0ebe 6015 553d e2ef 543e 5f19 453e
000001b0: dde3 963c 3754 1c3e 20ab 173e 8e46 9c3e
000001c0: 3a8e 253e e8ce 493d 8e5a 60bd 603a eabd
000001d0: 184a 623d b415 27be 4442 66bc ee08 853c
000001e0: 0dcb 46bd da3f a43d 58e3 943d b3ef 9d3d
000001f0: 3ff0 193e ea68 b13c c715 333e 0608 603c
00000200: 31b0 0fbe 46e7 1abe e052 24be cbfd 04be
00000210: cbee 47be a312 c5bc a7d2 803d 42ae 44bc
00000220: 90bd 4b3e cfa8 a13d 44da 63bd 8095 2d3e
00000230: 68c6 ec3c 6f28 73bd c3d5 afbd 8637 3bbe
00000240: bc44 06be 0397 1cbd df4a 7f3c 688f 86bd
00000250: dc69 ffbd 5c3b a3bd 127b a8be f42e ccbe
00000260: dd47 a4be a6a6 b8be 4f15 823c 67b3 693e
00000270: cea8 613e 9b44 943e 992b 183e 1941 49bd
00000280: f2c8 16be 3bc5 403e 6ace 2b3e b6fe 02bd
00000290: ce06 233d 4a52 e33c 3cd0 a93d c4e8 333d
000002a0: be5d 51bd 7c49 14bd 1cf8 883c 5fd3 853d
000002b0: 9b9c bc3d ef89 fa3b 4e25 5abd 5aa8 543e
000002c0: 9806 9f3d 3808 353e 8b4b 50bd 3488 38bd
000002d0: ca0a 27be ea4e 5dbe cb22 24bd 6a82 42bd
000002e0: 9619 94bc c7ec 23bc e40a c03d 3ff9 cbbd
000002f0: b2cd 213e f7ec 04be 0ffa c83b 004f 2c3b
00000300: f090 a23d f726 16be d63f be3b bb76 613d
00000310: 7d58 603e b7a8 553e 0047 e23c 1263 b83d
00000320: 0a7c 12be 2445 fcbd fa20 69be 8aee 4e3c
00000330: 6acf 1f3e 7698 153e 99da c23d b6ff 2ebe
00000340: 7804 94bd 6563 39be 5a7d 80bd ce5d 9dbd
00000350: 5ad4 0abc 1f07 c13d 9f77 c33d 56df da3d
00000360: ae06 b3bd c115 213d 4339 2d3d 88ac a8bd
00000370: f2a3 f13c 7894 123e 724b f7bd 137f adbd
00000380: 1ca4 6d3d 2407 c63c 8ad9 80bd 819a 14be
00000390: 3759 4b3d 8cef 34bd dbad 8b3e 035d 10bd
000003a0: 72d0 24bd 2b65 153b ec3a 033e 88f1 2a3e
000003b0: c536 d8bc 769f 54bd 632d 89be 2dc1 ebbd
000003c0: 1e6d 10bd 6bb2 9aba 0604 9bbd 6ba6 3fbd
000003d0: c2c0 b9bd 20dd 01bd 4c87 cebd 749f c8bd
000003e0: 0574 5bbc 54f1 2b3e 7af5 05be ab00 33be
000003f0: 0842 5abe dac3 b4bd 4e26 90bb b114 a4bb
-0.17389762 -0.10420639 -0.031155301 -0.22199337 -0.04484358 -0.26385257 -0.3120561 0.0436506
0.016976396 0.24981897 0.07233533 0.116748035 -0.005598037 0.10241312 -0.19750616 -0.040623337
-0.27372682 0.09253621 0.08409053 0.045094952 0.015934622 -0.11918636 0.0014903115 -0.017537005
-0.028736731 -0.09560924 -0.05637642 -0.13206293 0.017525926 0.052602027 0.092225224 0.114900686
0.30727866 0.1465036 0.11438937 0.053267926 0.32248566 0.19677788 0.26630038 0.020646518
-0.064132005 0.09154602 -0.04930854 0.053391833 0.059604008 -0.01183621 -0.123162664 0.07764012
-0.11517238 -0.04262565 -0.04065696 -0.24014023 0.1589621 0.03781947 0.06987161 0.05658314
0.0326099 0.19912837 0.27970546 0.22086288 0.056334957 0.041780874 0.116544865 0.07909975
-0.10974747 0.17431858 -0.026509272 0.11997572 0.0724937 -0.024592796 -0.13352923 -0.06682865
-0.085891545 -0.11805661 0.06504605 -0.047861338 -0.3341475 -0.11174379 -0.04790014 -0.032490067
0.1314394 0.14862874 0.11339476 0.17800388 0.013458312 -0.13990861 -0.17835736 -0.22447611
-0.042804524 -0.09245275 -0.16902591 0.11443123 -0.026052058 -0.090968 0.10831559 -0.1379793
0.016972115 -0.025964571 0.05537771 -0.21253814 -0.1412497 0.03137193 -0.20955354 -0.130807
-0.1390224 0.052022338 0.20794633 0.1924796 0.0184192 0.152665 0.14811373 0.3052258
0.16167536 0.049269587 -0.05477386 -0.114369154 0.055246443 -0.16316873 -0.014053885 0.01623961
-0.048533488 0.08019991 0.07269925 0.077117346 0.15033053 0.021656472 0.17488776 0.013673788
-0.14032055 -0.15127286 -0.1604724 -0.1298744 -0.19524686 -0.024056738 0.06290179 -0.012004437
0.19896531 0.07893526 -0.055628076 0.16951561 0.028903201 -0.059364732 -0.08585694 -0.182829
-0.13112158 -0.038229953 0.0155818155 -0.06570321 -0.12471363 -0.07970306 -0.32906395 -0.39879572
-0.32086077 -0.36064643 0.015879301 0.22822343 0.2203705 0.28958592 0.14860381 -0.049134348
-0.14725092 0.18825237 0.1677796 -0.031981193 0.03980141 0.0277492 0.08291671 0.043923154
-0.05111479 -0.036202893 0.01671987 0.065344565 0.092095576 0.0076458375 -0.053258233 0.20767346
0.077649295 0.17678916 -0.050853293 -0.04505177 -0.1631271 -0.21612135 -0.040072244 -0.047487654
-0.018078607 -0.010005183 0.09377077 -0.09959649 0.15801123 -0.1298102 0.006133325 0.0026292205
0.07937801 -0.14663301 0.0058059497 0.05504487 0.21908756 0.20865141 0.027621746 0.09003271
-0.1430513 -0.12317875 -0.22766486 0.012630114 0.15606466 0.1460894 0.095143504 -0.17089733
-0.07227415 -0.18104322 -0.06273909 -0.076839074 -0.00847348 0.09425186 0.095443 0.10687129
-0.087415084 0.039327387 0.042290937 -0.08236033 0.02949712 0.14314449 -0.12074937 -0.08471503
0.058017835 0.024173327 -0.06291492 -0.14512064 0.04964563 -0.044173762 0.2728108 -0.035244953
-0.04023785 0.0022795897 0.12815446 0.166937 -0.026393304 -0.051909886 -0.2679244 -0.11511455
-0.035260312 -0.001180244 -0.07569127 -0.046789568 -0.09069969 -0.03170502 -0.100843996 -0.09796038
-0.01339436 0.16791278 -0.13081923 -0.17480724 -0.21314251 -0.08826418 -0.0043990975 -0.0050073494

conv3.bias f4 [8]
00000000: d567 87be 2a04 07be 8450 d03d 0221 03bc
00000010: 96e4 833d 7ddf 503e 1e07 94bc 63e6 76bd
-0.26446405 -0.13185182 0.10171607 -0.008003475 0.06440084 0.20397754 -0.0180698 -0.060278308

bn3.weight f4 [8]
00000000: 9549 873f 6a16 923f e094 6b3f 1730 913f
00000010: 4bea 6f3f db6f 383f 009a 843f b4d3 4f3f
1.056933 1.141309 0.9202404 1.1342801 0.9371688 0.7204568 1.0359497 0.8118241

bn3.bias f4 [8]
00000000: 19e6 8d3e 0615 19bd 1152 bb3d 66fc 5c3e
00000010: 3cc7 adbc ea26 d33d c8d2 df3c d1d3 1a3d
0.27714613 -0.037373565 0.09146512 0.21580657 -0.021213166 0.10310157 0.027322188 0.03779966

bn3.running_mean f4 [8]
00000000: f0ed 6b3e 9373 0dbf eb1a 5cbe d31d f13c
00000010: 297f cb3e 05c1 713f 586c 19be c0d1 083f
0.23039985 -0.5525448 -0.21494643 0.029433167 0.39745453 0.9443515 -0.14982736 0.53445053

bn3.running_var f4 [8]
00000000: 5861 4740 1857 f23e a5f4 f73f af2e 013e
00000010: c8a8 873f 463d 1a3f 5e80 1f3e 5427 953f
3.1153164 0.47332072 1.9371535 0.12615465 1.0598383 0.60249746 0.15576312 1.1652627

conv4.weight f4 [11, 8, 7]
00000000: 2921 8fbd b209 803c 6f62 163e fce3 953d
00000010: e6ab 89bc f46f 04be 4036 e13d 4082 1a3e
00000020: bb4d 3c3e edd9 64bd 2319 2fbe bb30 6ebd
00000030: b83d 4f3d 324d 7a3d d494 9bbd 288f ad3d
00000040: fc27 cb3d b7ae 113e a0ab 03be 1bdd 033d
00000050: a85f ab3e c2ee 103e 7a35 bdbc a20c a3bd
00000060: 02d8 573d fb5f 39be 07ec a7bd 773e 813d
00000070: fa17 8ebe d856 53ba 5b07 0a3e 8a89 2a3e
00000080: 59cd 033e cdfa c9bd 6f63 fe3d 205d 2bbe
00000090: 1bb3 8fbe 3ec3 48be 49ac 83bc 2671 a2bd
000000a0: c2ed 5d3e da12 573e 5f9b 473d d547 463e
000000b0: 8fb7 d13c 9386 1b3d 0a34 683c 738b 033d
000000c0: e1b0 00be b86f 6bbd fb29 c63d 8896 6e3e
000000d0: f2d9 083d 43a5 c6bd 75ef 283e dd84 343e
000000e0: 867f aa3d 149e a4bd f4c2 83bd 06f6 9b3d
000000f0: ea37 173d a1b7 2dbe 2573 ef3d 4d4d b63d
00000100: 5d26 193d 5fac 89be 2ad9 523d dd24 2f3e
00000110: 7c8d 3dbd c6f5 0abd b2ce e93d c56d fcbd
00000120: 5be5 60bc c339 abbd fe49 1d3e 5e35 d2bd
00000130: 5f8f a13d 260a 743e 097e 443e db3b ed3c
00000140: cbcb 353e 9885 7a3e 527f 70be 16a4 03bf
00000150: 5abf 26be 6f98 69bd 99a3 6c3c e2b2 e6bd
00000160: f043 2fbe fc63 f5bc 4151 983d 33bb be3d
00000170: 3897 43be df55 0f3e d1a1 f0bd e80d 443d
00000180: 61c7 23bd 4400 263e 0acc 1b3d 6ab3 183d
00000190: 3485 773b d2c8 873d 817b 99bd 37a3 9bbd
000001a0: d6e1 3abd e96c fc3d eeb7 173d 08ac 70bd
000001b0: 762d 73bd d92c a6bd 2e10 c63d 3c1b 1cbd
000001c0: 7b7b af3c 4410 5d3b e00d 50bd 78af 0c3e
000001d0: 49d9 53bd 6233 13bd dc67 0abe ce6e 673e
000001e0: 1815 b6be 573f acbe 05c8 683d 8999 ccbd
000001f0: 938c a6bd 1a90 c4bd 5956 3a3e d35a ed3d
00000200: fcb0 2cbe 4c8e ffbd 52a6 82bd f314 e3bd
00000210: 4f29 023e f071 86bd 7e4c 94bd a8e2 6cbe
00000220: c0cc b0bc 56fe 81bd 6169 6c3c 379d 71bd
00000230: 019c 5a3d 19e0 9ebe a25e 9ebe 9d7c 4ebe
00000240: c8f2 1bbe 44ee 13bd a2b2 bebd cf24 5a3d
00000250: b722 05be b1fc cc3d 42af 7dbc a062 8bbd
00000260: 487f a4bd f55c 38bd a6d0 70bd 5b23 6fbe
00000270: b69b 063e a9fc 163e 6da8 c2bd c52a 133e
00000280: b0ea 5a3e f355 aabd d793 053e 9b99 29be
00000290: ad7f cbbe 25d0 a8be 39ca a03c 58e8 e6bd
000002a0: 698d 083e 0f1c 97bd c599 9c3c 669c 683c
000002b0: 6757 bfbc 2ed2 5f3e 994f 533e ae93 bfbd
000002c0: 41ce 463e c0a9 5cbc 52bc 12be c556 8d3e
000002d0: fa6d fdbd 3d80 333e c6db 673e b4e9 40bd
000002e0: f8bf bb3c 17d8 b73c 7b8b c8bc 264d a7bc
000002f0: e39b 9e3e 7a85 123c 253a 69be a6f6 0c3c
00000300: 1dbf a2bd 19b4 fc3d 227e f5bc 8108 52be
00000310: e1eb 253c 16a4 3c3e 12bb 963d 9a29 00bc
00000320: b9c8 333d 3024 d03d 9ee4 8abe ff8c b23d
00000330: ecb6 d7bd 031d d13c f102 063e 7fca 45bd
00000340: 97b7 febd 18b6 a2bd 44ab 593e c94f a63d
00000350: eb87 0d3e df81 723e c885 3e3e a3b2 2bbe
00000360: dfc4 c7be 86bd 8b3e 09a8 0bbd 9dcb 02be
00000370: ef9b 683e 784a 67bd 1229 acbd 990f 00be
00000380: f027 883d 9f95 f2bd 0d0a acbd 299a 453d
00000390: eaba d2bd 192f d3bc 33ec 0a3c c2d0 3ebd
000003a0: 5ec9 983d 2864 50bd 523f 273e 41c8 4c3d
000003b0: 7281 fdbd 550e babd 1bd2 373d 02e1 a63c
000003c0: 18b3 ab3e abfa 50bd d3b4 0fbd 1dfc 94bd
000003d0: 057d 3e3d d1df 323e 8809 543e c2f8 a3bd
000003e0: ccb9 b0be 971a 8abe ca37 553e b8fa 473d
000003f0: df1e 233e 8f24 88bb d152 7bbe b8f8 b2bd
-0.06988747 0.015629623 0.14685987 0.07318875 -0.0168056 -0.12933332 0.109966755 0.15088749
0.18389027 -0.055871893 -0.17099433 -0.05815194 0.05059597 0.061108775 -0.07596746 0.084745705
0.09919736 0.14226805 -0.12858438 0.032193284 0.33471417 0.14153579 -0.023096789 -0.07961394
0.052696235 -0.1810302 -0.081993155 0.06310742 -0.27752668 -0.0008061952 0.13479368 0.1665403
0.12871303 -0.098622896 0.12421309 -0.16734743 -0.28066334 -0.19605729 -0.016073363 -0.079317376
0.21672729 0.21003285 0.048732158 0.19363339 0.025600223 0.037970137 0.014172563 0.03211541
-0.12567474 -0.05747959 0.09675976 0.2329961 0.033410974 -0.0969949 0.16497596 0.17628808
0.083251044 -0.080379635 -0.06433669 0.076152846 0.03691856 -0.1696458 0.11691884 0.08901463
0.0373901 -0.2688932 0.051476635 0.17103906 -0.04627751 -0.033925794 0.11416377 -0.123256244
-0.013726558 -0.083606265 0.15360257 -0.10264085 0.07888674 0.23831996 0.19188704 0.028959205
0.17753522 0.24465024 -0.23486069 -0.5142225 -0.16283932 -0.057030138 0.014443302 -0.11264588
-0.1711576 -0.029954903 0.07437373 0.09313049 -0.19100654 0.13997601 -0.11749614 0.047864825
-0.039985064 0.16211039 0.038036384 0.037280478 0.0037768604 0.066301 -0.074942596 -0.0759949
-0.04562553 0.123254605 0.037040643 -0.05875781 -0.059369527 -0.08114023 0.09671055 -0.03811191
0.021421185 0.003373162 -0.050794482 0.13738811 -0.05172089 -0.035937674 -0.13516182 0.22600862
-0.35562968 -0.33642074 0.05683138 -0.09990222 -0.08132281 -0.09597798 0.18197002 0.11589589
-0.16864389 -0.12478313 -0.06379379 -0.1108798 0.1271107 -0.065647006 -0.07241152 -0.23133337
-0.021582007 -0.06347339 0.014429421 -0.058987822 0.053371433 -0.31030348 -0.30931574 -0.20164724
-0.15229332 -0.0361159 -0.09311415 0.05325776 -0.13001524 0.100091346 -0.015483679 -0.068059206
-0.080320895 -0.045010526 -0.058792733 -0.23353331 0.13145337 0.1474482 -0.09504781 0.14371784
0.21378589 -0.08317175 0.13044678 -0.16562502 -0.39745846 -0.32971302 0.019627677 -0.11274785
0.13335194 -0.073783986 0.019116292 0.014197445 -0.023357106 0.21857521 0.20635833 -0.093543395
0.19414617 -0.013468206 -0.14329651 0.27605262 -0.12374492 0.17529388 0.2264243 -0.047097877
0.022918686 0.022441907 -0.024480572 -0.02042253 0.30978307 0.008942956 -0.22776087 0.008603727
-0.07946608 0.123390384 -0.029967371 -0.20511056 0.010127039 0.18421969 0.073598996 -0.007822419
0.043892596 0.10163152 -0.27127546 0.08718299 -0.105329365 0.02552653 0.1308706 -0.04828882
-0.12437361 -0.07944888 0.21256739 0.081206866 0.1382138 0.23682354 0.18605721 -0.16767363
-0.39017388 0.27293032 -0.034095798 -0.12772985 0.22715734 -0.056467503 -0.08406271 -0.1250595
0.066482425 -0.11844944 -0.084003545 0.04824272 -0.10289557 -0.025779294 0.008479166 -0.046585806
0.07460283 -0.050876766 0.16332749 0.049995665 -0.12378205 -0.09084765 0.044878107 0.020370964
0.33535075 -0.051020306 -0.035084557 -0.07274649 0.046505947 0.17468192 0.20706761 -0.08006431
-0.34516752 -0.2697341 0.20822063 0.04882309 0.15929745 -0.0041547487 -0.2454331 -0.087388456

conv4.bias f4 [11]
00000000: b570 14bd 630d c73d aa0f 253e 543c 133e
00000010: b49e 943d 9a1c 0dbe dbca 783b 91ab 363a
00000020: 15ed da3d a9ff 04be 2246 683d
-0.0362403 0.0971935 0.16119257 0.14378482 0.07256833 -0.13780442 0.0037962708 0.00069683144
0.10689751 -0.12988152 0.05670751

bn4.weight f4 [11]
00000000: 21ef 193f 55e7 6f3f 3127 523f da8b 3d3f
00000010: 2e4e 4f3f c17b 793f 8b60 a93f 17d1 633f
00000020: 653a 693f 90d4 813f 1abc 883f
0.60130507 0.9371236 0.8209105 0.7404152 0.8097867 0.9745446 1.3232588 0.8899092
0.9110473 1.0142994 1.0682404

bn4.bias f4 [11]
00000000: 2b23 6bbb 2021 1dbe 3f5f 973c 66f9 3fbe
00000010: 647f f1bc bd99 cfbd ef14 293e dea4 39be
00000020: 233f c5bd 0fd0 b3bd 2774 cd3d
-0.0035879116 -0.15344667 0.018478034 -0.18747482 -0.02947969 -0.10136745 0.16511892 -0.18129298
-0.09631183 -0.087799184 0.1003192

bn4.running_mean f4 [11]
00000000: b291 e93e 5103 4d3c e053 81bf cf04 313f
00000010: c88e 873e 2373 b1bf a238 913e f016 c8be
00000020: 8b02 97be 7b0f 34be 233e 3a3c
0.4561897 0.012512998 -1.0103722 0.6914796 0.2647612 -1.3863262 0.2836352 -0.3908
-0.29494128 -0.1758403 0.011367354

bn4.running_var f4 [11]
00000000: f2d6 3e3f e6d7 ea3e 47ae 6440 a199 2c3f
00000010: 3af9 283f 5d5b 3540 c340 003f b5f1 853f
00000020: 40bc 053f b4db 853e ab7d 533e
0.7454673 0.45867842 3.573137 0.6742192 0.6600529 2.8337014 0.5009882 1.0464388
0.5224037 0.26144183 0.20653407

conv5.weight f4 [11, 11, 7]
00000000: 0653 733d 1875 a3bd afb0 e7bc cd03 4b3e
00000010: 5729 c43c e738 233d 1b0d bc3d bc6e 373e
00000020: 8adb d23d 05a8 9dbd ab60 80be ce25 92be
00000030: 82c4 25be e27a 27be 3f62 a13b 2047 52bc
00000040: f7c6 363e 39bf 243e 1f73 e3ba 6cd6 ec3d
00000050: e8f9 073e bf47 07be 004c cb3d 81b7 b4bc
00000060: 3f71 aabd 7d25 56be adfc babd 41f9 e2bd
00000070: 423a 173e 5273 133e b545 d4bd d15e 103d
00000080: f811 963d 1220 b0bb e63c 183c 9c7a 773d
00000090: e1bc 03bd ec07 443e fb05 c83d 9095 4d3e
000000a0: 7c7e 863d fac0 4dbe d5ed 1ebe ab9b 76bc
000000b0: 27d4 fb3b a5d5 a3bd e8e8 b0bd 2446 553c
000000c0: aaf2 d3bc 507d 093b 6977 20be 06c4 8bbd
000000d0: a75b 9bbe 5244 cd3d f06f 993d 2b67 503d
000000e0: c617 f03c 70f6 bcbb 3f83 cfbc ca53 533d
000000f0: 769c 4ebd 00f5 6d3d a28c 193e c4fe d23d
00000100: 34a3 e43d 1929 0a3e 2ab1 52be da3d 1fbe
00000110: 1f3b 60be 14d7 303b 9236 a03c 05f4 92bd
00000120: 24d2 373e c852 3d3e d76b 8d3e 2646 b43d
00000130: 96a8 e3bd 7269 52b9 6d05 12be ace7 053d
00000140: 4e03 77bd bded 32bd 98ea 2fbd 8413 c83c
00000150: f07a d4bc dfde d6bd 072c ba3d 6302 e2bb
00000160: f018 0bbd 6fbb b1bd 7d1e d0bd 4ef7 36bd
00000170: 3246 98be dccc 2fbe 3dc4 743e 2bf1 16bd
00000180: 6528 1a3d d487 033e 620c a1bc db02 f53d
00000190: 4610 c73d f1b6 e1bc b7ed 09be d5a4 0f3d
000001a0: 6327 0d3e c8e6 f73d 1b8d a7bd 1d53 1f3e
000001b0: d0c1 6e3d 83ba ac3c 64ca 9f3d cc19 b3bd
000001c0: 8659 51be cada 4b3d ba0a 1bbe 30e2 b7bc
000001d0: cdf1 103e 0dbd 833d 3543 463e 5fbd 553e
000001e0: 782d 943d 5a4f 283e 85be 3a3d fd6c d0bd
000001f0: 395c 28be bd62 b83d 8682 323e 5942 0f3c
00000200: f75e d63b 80d7 56bd 54c2 f43c bb1b 8ebd
00000210: ebb6 223e 671e 863e 83eb 1c3e 8131 ff3d
00000220: 8548 ac3e 1297 1e3e 3c92 ef3d a8ff 09bb
00000230: 76dd 733d 5f44 133e d568 7d3e d073 cc3d
00000240: 9ec4 e13d 22f1 753d 5076 763e ee41 933e
00000250: 9f3e 4f3e ddc9 323e 0c5e c53e 92ee 693e
00000260: ae5a 823d 0ef4 8dbc 728d 9ebd f372 e43d
00000270: c637 0b3d 1dc7 283d ea49 363d 1a0c 1d3d
00000280: 05e1 443e fc01 25be f61a 94bd f698 16be
00000290: 3b98 31be d225 7abe aa12 83bb 9701 1f3d
000002a0: 19aa 92be 0d7b 3abd 500e be3d ddad 84be
000002b0: 180c 153b 60bd 563d 8619 18be 4d4a 7c3b
000002c0: f892 033d b157 3b3d a5f6 2cbd 74b8 51bd
000002d0: 534e 463e 6e3f 4b3e 4a67 803d c762 de3d
000002e0: dfee c1bd 2cf0 b7bc 35eb 58be ee1f d13d
000002f0: bd9e a23b bc39 533c 92f7 2fbd dab2 3cbe
00000300: 27e6 71be d361 e2bd de13 bdbb 3b87 b5be
00000310: db1e 40be 3330 1c3e 8551 383e b5c0 e3bd
00000320: 841c 0abc ab39 40bd e5dd 053e 96d7 51bd
00000330: c69e d33d 765c 85be d0b5 9d3d 97c2 7fbd
00000340: e49a 5c3d 3a58 2ebe f41d 8ebe 03d6 f4bd
00000350: 48b6 2cbe add5 403e 3a20 92be c0c8 5abe
00000360: 4ac2 8dbe 3de7 48bc c2cb 09be 70c4 2dbe
00000370: fc69 1ebe d743 20be 5d32 7fbd 32b3 a5bd
00000380: c0ff d4bc d4c0 0dbe 9494 9dbd 6e1b 5abe
00000390: 1dbc c6bd 089f 4bbb 3f93 b6bd 03fb 393c
000003a0: f317 b33d 1e61 1e3e d824 eb3d 723c e3bd
000003b0: cf18 d3bd 3d07 cebc 93f5 66be c948 f23d
000003c0: 3a78 3fbd 85f2 a63d 9c93 a6bd 0f2d e3bd
000003d0: e845 13be c741 dbbc 9ad8 43bd efd8 1abe
000003e0: 71e7 2dbb 05f1 bdbd d686 393d d22e 5b3d
000003f0: 0ed7 afbd ddd0 9b3c ecd8 a83c 0b8e 0a3e
0.05940535 -0.07981318 -0.028282491 0.19825669 0.023945494 0.03984919 0.09182187 0.17913336
0.1029578 -0.07698063 -0.25073752 -0.28544468 -0.16188243 -0.1635547 0.004925042 -0.01283434
0.17849337 0.1608857 -0.0017353034 0.11564335 0.13278925 -0.13210963 0.09926605 -0.022060158
-0.08322381 -0.20912738 -0.09130225 -0.11082698 0.14768317 0.1439946 -0.10364858 0.035246674
0.07327646 -0.005374917 0.009291863 0.060419664 -0.03216255 0.19143647 0.09766766 0.20076585
0.06567094 -0.20093146 -0.15520413 -0.015051763 0.0076852026 -0.07999734 -0.08638173 0.013017211
-0.025872547 0.0020979233 -0.15670551 -0.06824498 -0.30343363 0.10022797 0.074920535 0.05087964
0.029308211 -0.0057666823 -0.025331138 0.05159358 -0.05044218 0.05809498 0.14995053 0.10302499
0.11163941 0.1349224 -0.20575395 -0.15550938 -0.21897553 0.0026983665 0.019557271 -0.07175449
0.17951256 0.1848861 0.27621338 0.08802442 -0.111161396 -0.00020066442 -0.14259882 0.032691643
-0.060305886 -0.043683756 -0.042948335 0.024423368 -0.025937527 -0.10491728 0.09090429 -0.006897257
-0.03395933 -0.08678328 -0.10162065 -0.044669442 -0.29741055 -0.17167991 0.23902984 -0.03685109
0.03763618 0.12844783 -0.019659225 0.11963435 0.09719901 -0.027553054 -0.13469587 0.035069305
0.13784556 0.12104565 -0.081812106 0.15559049 0.058290303 0.02108503 0.07802275 -0.08745155
-0.20444307 0.0497692 -0.1514081 -0.022446722 0.1415474 0.06432543 0.19361575 0.2087302
0.07235235 0.1643652 0.04559185 -0.10177038 -0.1644143 0.09003208 0.17432603 0.008743846
0.0065420824 -0.05245161 0.02987782 -0.06938883 0.1589009 0.2619507 0.15324216 0.12460614
0.33649078 0.15487316 0.11697814 -0.0021056924 0.059537373 0.1438155 0.24747021 0.09983027
0.1102383 0.060044415 0.2406857 0.28761238 0.20238732 0.17459817 0.38548315 0.22844914
0.06364952 -0.017328288 -0.07741822 0.11154737 0.033988737 0.041205514 0.044504084 0.03834162
0.19226463 -0.16114038 -0.07231705 -0.14706787 -0.17343228 -0.2442849 -0.0040000277 0.038819876
-0.286454 -0.045527507 0.09280074 -0.25913897 0.0022742804 0.052426696 -0.14853486 0.0038496435
0.032122582 0.045737926 -0.042227406 -0.0512013 0.19365816 0.19848415 0.06269701 0.10858684
-0.09469389 -0.02245339 -0.21183474 0.10211168 0.0049627707 0.012892183 -0.04296071 -0.18427601
-0.23622952 -0.11053815 -0.0057701906 -0.35454735 -0.1876177 0.15252762 0.17999847 -0.1112074
-0.00842965 -0.046929996 0.13072927 -0.05123099 0.10333018 -0.26047105 0.077006936 -0.062441435
0.053858653 -0.17025843 -0.27757227 -0.11954882 -0.1686641 0.18831511 -0.28540212 -0.21365643
-0.27687293 -0.012262163 -0.13456634 -0.16969466 -0.15470117 -0.15650879 -0.06230389 -0.080908194
-0.026000857 -0.1384309 -0.07694355 -0.21299526 -0.097038485 -0.0031070132 -0.08914804 0.01135135
0.08744802 0.15466735 0.11481637 -0.110955134 -0.10307466 -0.025149936 -0.22554617 0.11830289
-0.046745516 0.08151726 -0.08133623 -0.110925786 -0.14382136 -0.026764764 -0.04781399 -0.15121816
-0.0026535655 -0.092744865 0.045294605 0.05351145 -0.0858594 0.019020492 0.020611249 0.13530748

conv5.bias f4 [11]
00000000: 8567 fd3c 0882 e03d f540 27be 0d7c fb3d
00000010: b8de 7bbd f096 b5bc 246a f23c 5add 10bd
00000020: 2e01 743c 8090 253e 2888 96bd
0.030933151 0.109623015 -0.16333373 0.1227952 -0.061491698 -0.0221667 0.029591627 -0.035367347
0.014892859 0.16168404 -0.073501885

bn5.weight f4 [11]
00000000: 6509 873f a1cc 5f3f ee6b 613f 5bb9 af3f
00000010: 1ea8 843f 8737 843f 801c 993f b0e4 853f
00000020: 4648 5f3f 8f46 793f 0bda 753f
1.0549742 0.87421614 0.8805531 1.3728441 1.0363805 1.0329446 1.1961823 1.0460415
0.87219656 0.9737329 0.9603583

bn5.bias f4 [11]
00000000: 854c 0ebe 249a 69bd b289 363b c3c0 123e
00000010: 3e26 cc3c 9c91 bb3d ce42 873e 8d08 973d
00000020: e20f 5a3e 47b1 ccbc 357c ed3d
-0.13896377 -0.057031766 0.002785307 0.14331345 0.024920579 0.09158632 0.26418155 0.07374678
0.21295121 -0.024986876 0.11595956

bn5.running_mean f4 [11]
00000000: be9d 493e 9ec8 a73f 0e43 adbf 1528 e5be
00000010: 21e7 57be 6fed 36bf 7ddb b7be 65d4 95be
00000020: d717 95bf 2999 bf3c 34d3 92be
0.1968908 1.3108099 -1.3536088 -0.44757143 -0.21084262 -0.71456045 -0.35909644 -0.29263607
-1.16479 0.023388462 -0.2867676

bn5.running_var f4 [11]
00000000: 366c 373f 03c8 a73f f427 aa3f 7ea8 7e3f
00000010: e9ec 2a3f 2aeb ba3f 905d 493f 4d49 e53e
00000020: f400 813f bc69 853f 8afb a63f
0.7164949 1.3107914 1.3293443 0.9947585 0.66767746 1.4603016 0.7865839 0.44782487
1.0078416 1.0422893 1.3045514

conv6.weight f4 [16, 11, 7]
00000000: d879 a83d e539 253e 921d b8bd 093a 8cbe
00000010: 9b27 d63c 10ff 5cbe 6d58 92be 95d2 0cbe
00000020: 2229 143d 50d7 82bc 1ddb c13d 90de b7ba
00000030: c1ad e6bd ccab 87bb 69ef 723d 7d6e bfbc
00000040: ab82 aebd c862 e3bd cf34 9dbd 5dfd 50bd
00000050: 3932 a53c 73f1 6cbe 051d 1b3e ef77 5d3d
00000060: d3d6 b3bd 92a3 84be 81a5 b1bd d345 bc3d
00000070: 855a fdbd e063 1ebe ab37 d5bd 3524 003e
00000080: 2e1a 96bd 8e44 d0bd b91d 25bd eb4d f83d
00000090: 8b15 c33c 712a 97bd fa12 7ebe 28f8 0ebd
000000a0: fa8a 813d 7172 abbc c331 85bd 135a 56bd
000000b0: f671 69bd 02dc 7cbc 6e72 32be 723f 10be
000000c0: 9a97 12be a2cb 433e edb6 bb3d 9d87 37be
000000d0: 012f 06bf 03ff c1bd c006 42be 93b5 48bc
000000e0: 8b0c cb3c 5e91 9fbd 30d3 7dbd c91c 2ebe
000000f0: c2db 5abc d18a 9d3d 8ef4 613d 6307 00be
00000100: 4260 38bd a7d8 863e df01 2a3e fab9 d63d
00000110: 7140 863d 2129 193d 4eba 47bb fd32 f4bc
00000120: 103f f5bd c72c 0b3d 1498 90bb 0377 053d
00000130: 15df 26be 14f0 683c 87c2 e93d be74 683e
00000140: 07a7 3cbe cb47 eebd 9826 b3bb 3fc1 fabd
00000150: de8e 633e 223a b1bc 3dee 743e 7f71 f6bd
00000160: 9bc4 1ebb 6b91 8c3d 712c 23bd c44a 9bbd
00000170: a84f 8fbd 8190 cfbd 6fa1 b3be c047 22be
00000180: 648b 803d 96ca 343d 6020 2bbe e739 57bd
00000190: 8114 0cbd cdd4 1abd c14c fe3c d96a 893d
000001a0: 56b8 b6bd c81b 8dbe 116c f53d d76d c03c
000001b0: 3f74 943d 0bb8 49be 1da5 03bd c356 e1bd
000001c0: 84aa ab3d bd2e 06be 8087 dd3d d9ce 41be
000001d0: a27b abb9 6181 35bd cc55 083d d92c 393d
000001e0: 8b2b 363d 7ce4 a13d 8a8a 323c c700 9dbd
000001f0: b5d4 423e bc86 a83c ba4e a0bd 0d16 51bd
00000200: 1904 773d e4c9 7d3d 5950 033e d413 093e
00000210: 591a 06be a42a 8c3d 5850 adbd c69e 753d
00000220: 948d 54be 8eb2 e9bd 14fc 0cbd c79a 1b3e
00000230: 6fe7 b8bd db1d 3f3c cef2 ddbc 6a21 453e
00000240: eb55 99bd 3d02 5c3e 7715 1ebe 9779 1bbe
00000250: 217e 5cbe 87c3 6cbe eb09 15be e100 a9bd
00000260: dd30 6abe 4320 0bbe ef8b e0bd 6d54 3b3e
00000270: 0525 603d c50d dc3d 7739 52bc f660 a2bd
00000280: 2cb0 4e3d 1625 7b3a 28cb 99bd 6af7 0bbe
00000290: bb09 0d3d 9a2f 333e 5e07 ccbd bcb0 c7bc
000002a0: cf90 41bd 9fba e5bd 2e85 813c 182d 063e
000002b0: 1902 2ebd 332e edbb de5c e43b 21e9 00be
000002c0: b774 d83d ddb7 633e 1a27 7abe 73bd 9a3d
000002d0: 6723 02be 50d3 263e 8d0c 8cbd fd12 223d
000002e0: aefa 83be e2d1 b53d 8f13 133e e8ab 32bd
000002f0: 69be 5b3d b01b 713d 7c25 b4bd 9b70 203e
00000300: 6716 5ebd 733e 70bd 7cb0 a33a e412 cebd
00000310: 4fcc 11be 62fa 2b3d 177a ab3e b8e6 b3bd
00000320: d28e d03d 5916 85be 9132 19bc 8cda b13d
00000330: a862 7bbd 310d d53d 1452 2fbe c45c 17be
00000340: 2a10 d33d 0a3a 3dbd bd4f eabd 684b 043e
00000350: c367 04be 791c 0f3e 4280 c2bc 3c7a c4bd
00000360: 37b0 a03d 0618 903d 90ce 0abe fc3e 08bd
00000370: f1d0 a63d 29ab 3a3d faaa 5abc bd2a ef3d
00000380: 64fa 84bd 6543 edbd c038 9a3d 9336 033d
00000390: f665 d2bd cece bfbc 12e4 ef3c 4596 943d
000003a0: 7205 fb3d 829e 143e c6a7 46bd c4df b3bd
000003b0: 3c13 00be 0ccd 5abe e78d ebbc 4022 443e
000003c0: 8493 d63d a1fc 073e 0d9b f43d 05f9 5ebe
000003d0: 452f f13c eb3d 7e3d f5ac 2bbe f5fd 01bd
000003e0: 97eb 2e3e 9ace 383d c0d7 db3d dc71 a2bd
000003f0: 4578 c43d 6ac8 a33c d4a2 5cbe 6c4a b2bb
0.08226365 0.16135366 -0.08990015 -0.27388027 0.026141932 -0.21581674 -0.2858309 -0.13752206
0.03617204 -0.01597181 0.09465621 -0.0014028121 -0.1126361 -0.004140353 0.05931035 -0.023368115
-0.08521017 -0.111028254 -0.07676088 -0.051022876 0.02016555 -0.2313898 0.15147789 0.054069456
-0.08781209 -0.25906044 -0.086741455 0.091930054 -0.12370781 -0.15467787 -0.104110084 0.12513812
-0.07329212 -0.10169326 -0.04031155 0.12124237 0.023813983 -0.07381142 -0.24811926 -0.03490463
0.06325336 -0.020928593 -0.06503632 -0.052331995 -0.056993447 -0.015433313 -0.17426464 -0.14086702
-0.14315644 0.19120649 0.0916575 -0.17922826 -0.5241547 -0.09472468 -0.18947887 -0.012250322
0.024786254 -0.077913985 -0.061968982 -0.17003168 -0.013358058 0.07692493 0.055164866 -0.12502818
-0.045013674 0.26337168 0.16602276 0.10484691 0.0655526 0.03739274 -0.0030476036 -0.02980947
-0.11974919 0.03397825 -0.0044126604 0.0325842 -0.16296037 0.014217395 0.11414056 0.22700784
-0.18423091 -0.11634787 -0.005467247 -0.1224389 0.22222468 -0.021634165 0.23919006 -0.120333664
-0.0024226073 0.06863674 -0.039837305 -0.0758262 -0.06997615 -0.10134984 -0.35084102 -0.15847683
0.06276587 0.044138514 -0.16711569 -0.052545454 -0.03419924 -0.0378006 0.031042458 0.06709833
-0.08921878 -0.27560258 0.11983503 0.023489876 0.07248735 -0.19699113 -0.032139886 -0.110028766
0.08382133 -0.13103767 0.1081686 -0.18926562 -0.00032707775 -0.04431284 0.033284947 0.045208786
0.04447512 0.07904908 0.010897288 -0.07666164 0.19026454 0.020572059 -0.07827516 -0.05104642
0.060306642 0.061960116 0.12823619 0.1338647 -0.13095988 0.068440706 -0.0846259 0.05996587
-0.20757133 -0.1141101 -0.034420088 0.15195762 -0.090285175 0.011664833 -0.027093317 0.19251028
-0.07487091 0.21485229 -0.15437876 -0.15183102 -0.2153249 -0.23121463 -0.14554565 -0.08252121
-0.22870202 -0.13586526 -0.1096419 0.18293925 0.054722805 0.10744814 -0.0128310835 -0.0792865
0.05046098 0.00095804164 -0.07509452 -0.136686 0.034433108 0.17498627 -0.09962343 -0.024376266
-0.04725724 -0.11217236 0.015810575 0.1310314 -0.04248247 -0.0072381734 0.0069690784 -0.12588932
0.105691366 0.22238107 -0.24428979 0.07555666 -0.12708817 0.16291547 -0.06838331 0.03956889
-0.2577719 0.088779226 0.1436293 -0.043620974 0.053648386 0.058864295 -0.08796212 0.15667956
-0.054220583 -0.058653306 0.001248851 -0.10062197 -0.14238094 0.04198683 0.33491585 -0.087842405
0.10183491 -0.25993612 -0.009350435 0.08684263 -0.061373383 0.10402907 -0.17121154 -0.14781481
0.103058174 -0.04619793 -0.1144099 0.1291939 -0.12930207 0.13975705 -0.023742799 -0.09593627
0.0784611 0.07035832 -0.1355536 -0.03326319 0.08145321 0.045573387 -0.013346428 0.116780736
-0.06493071 -0.1158512 0.075303555 0.032034468 -0.10273354 -0.023414042 0.029283557 0.07255224
0.12256898 0.14513591 -0.048499845 -0.08782914 -0.12507337 -0.21367282 -0.028754188 0.1915369
0.10477355 0.13279964 0.11943636 -0.21774681 0.029441485 0.06207077 -0.16765197 -0.031736333
0.17082058 0.045118906 0.107345104 -0.07931873 0.09593252 0.019993026 -0.21546489 -0.0054410007

conv6.bias f4 [16]
00000000: 0c1c 873d 5953 9abd 9f16 283d 8a25 dd3d
00000010: c8a4 1c3e 6884 f23d 8e0a 2e3e 7950 1f3c
00000020: c14a 1abc 8fd0 243d 61bc 233e 3bc7 ea3c
00000030: 8971 f6bc 66cb 94bd e1c5 aa3d 2b0a 80bd
0.065971464 -0.075354286 0.0410372 0.10798176 0.15297234 0.11841661 0.16996214 0.009723776
-0.009417237 0.04023796 0.1598983 0.028659454 -0.030083435 -0.07265358 0.08338524 -0.062519394

bn6.weight f4 [16]
00000000: 8020 5b3f bde5 6b3f 27d0 8a3f d263 693f
00000010: fcf2 7c3f 0e2e 563f 6f6d 693f 911b 883f
00000020: 3e16 913f 6dd3 723f 5730 7e3f 4182 753f
00000030: 0d19 743f 884a 613f a303 5b3f 8049 723f
0.85596466 0.9214743 1.0844773 0.9116794 0.98808265 0.83664024 0.9118261 1.0633413
1.1334913 0.9485386 0.9929251 0.95901877 0.95350724 0.8800435 0.85552424 0.946434

bn6.bias f4 [16]
00000000: 3295 b13d dc4b 8e3d 2ed3 a83c 2bc9 b6bd
00000010: aedf a6bc cba9 07be 9aa0 663d 1365 763d
00000020: ffd7 573c 5a9f b0bd 1fa0 2abd dc9d 90be
00000030: 2629 1c3e 0efa c9bd 033d d4bd 5d78 d9bd
0.08671035 0.06948063 0.02060851 -0.089250885 -0.02037033 -0.13248365 0.056305505 0.060154986
0.013174056 -0.08624144 -0.04165661 -0.28245437 0.15250072 -0.09862147 -0.103631996 -0.106186606

bn6.running_mean f4 [16]
00000000: 52de a0bf 0bb0 6bbf f83b 9bbd 396f 263e
00000010: 1c65 1c3f 61cc cbba a071 8e3e bddd 81bf
00000020: 281f 84bd d1e1 98bf 4292 8d3e 7dc6 5f3f
00000030: 2961 a7bf 3f2a 54be 4a39 c83e c735 0dbf
-1.2567847 -0.92065495 -0.075797975 0.16253366 0.6109178 -0.001554858 0.27821064 -1.0145794
-0.06451255 -1.1943914 0.27650648 0.87412244 -1.3076526 -0.2071924 0.39106208 -0.5516018

bn6.running_var f4 [16]
00000000: 2e43 6b3f 429c 0b3f 2a25 e63e c822 c33e
00000010: 22d4 453f d103 3c3f 5f11 953f 4161 a63f
00000020: 4e65 083f aca6 873f 061f ff3e c902 413f
00000030: 58fc 613f b419 dc3e 3adb e93e 4e12 423f
0.91899383 0.54535306 0.4495023 0.38112473 0.77276814 0.73443323 1.1645926 1.299843
0.5327958 1.0597739 0.49828357 0.75394875 0.8827567 0.4298836 0.4567507 0.7580918

conv7.weight f4 [16, 16, 7]
00000000: 6f3c 5f3e e908 b93d 1680 66bd a129 1b3e
00000010: 429a 5a3e 6f02 9abd a3e6 6b3d 6a23 16be
00000020: 9bd3 193c ebde 143e 73b9 783d 8518 303e
00000030: 28fb 303e 54c7 4a3e b894 f63d 96cb 9a3c
00000040: fe88 d3bd cb27 0fbe 6619 1c3e c675 63bc
00000050: 8bbb 073e e29e 43bc 7e70 84bc b400 20bd
00000060: 8571 a93e fe3c 063d f664 7d3e d84b d53d
00000070: 5454 403e 8687 61be 9b83 1b3e e68a 633e
00000080: 13e6 61be f144 583c 3c8f 3d3e 2aa8 fcbd
00000090: aed9 8e3e f890 6e3e 2410 3a3e 1ecc ad3d
000000a0: 179e a4bc d2f3 8f3d e502 99bd 909b 403a
000000b0: e838 1e3b 482b 5fbb 0c02 d6bd c59f 69be
000000c0: b153 60be 2905 7b3d 1e85 f93d 12cd dfbc
000000d0: 12a8 47be c451 a5bc 1375 453d 36a5 04be
000000e0: 460b 473c 96f6 87bc 2e3b 813c d5d2 f43c
000000f0: 39b1 953d 9dab c4bd ace5 fd3d 3aae 9d3d
00000100: 7d3e e13a 0948 bb3d 8506 40be 6cbb dbbd
00000110: 5b7c 5dbd 6984 593e 0311 f13d b757 1e3e
00000120: c7c9 953d 5f33 823d d394 963d 2d7d a13d
00000130: 288c e53b 4b28 a23a 1288 b2bd 4e44 ea3b
00000140: 3005 e1bd e07d 423d 7ad7 2f3e 1020 b6bc
00000150: f8df e9bd a527 18be ff43 2abd 97f1 42be
00000160: 05b0 613c 5f21 d33d 56a3 343d 7f9d 093e
00000170: c41e 633e d864 76be 4730 193e 141c a33d
00000180: 7d8b abbd a087 663d e11c 473c 0bae 5cbd
00000190: 614a 433d 9a60 263d a585 3b3c d9fa 143e
000001a0: 4c81 d9bc 9bab d9bd a837 1b3e 0a08 f9bc
000001b0: dc5c ea3c e363 06be e392 393d a1a5 39bd
000001c0: dc3f 223c 60ef 2b3c 58ab c03c e9ea 943d
000001d0: ab6a 76bd ad2d 06be c65d 7fbb 140c 8abc
000001e0: d693 4fbd d2e0 c23d d625 c53d 3846 6d3e
000001f0: ed64 d0bd 9f86 a4bd bea9 6abd d4f7 f3bd
00000200: 0e91 243e 5476 823d d754 043e 67c9 723d
00000210: c2cc 903d 4f7d 1c3e 6709 133e 7b75 2e3e
00000220: 4f25 203e a2d1 513e 6bdd b33d 6a2f 963d
00000230: d0a8 e4bd 9891 ea3c 717d aa3c d4f3 1dbc
00000240: 5142 253e 92ce ca3d ab9d e73d 7c76 3b3e
00000250: ceda 163e f80b df3d a01a 633d 33f5 503e
00000260: 1db7 e53d b47a 193e 9acb 2ebe ccf1 00bd
00000270: c854 19bd 8642 3dbe 8340 cb3c e1d7 77bd
00000280: 7ac3 aa3b 894f f8bd ba8a 9cb9 4cfb 0f3d
00000290: 022c 1d3e 6fba 873d bd25 5a3e 1f7f 5ebe
000002a0: 1254 6c3a b511 833e ffa0 acbd acd1 0bbe
000002b0: 056c adbd 49f9 56bd 4b44 383d 21c6 853d
000002c0: c28d a0bd 4060 053e 5752 ab3c 136c 7fbe
000002d0: 7079 4c3d c85d 703d 2523 f9bd 5326 ad3e
000002e0: 717d 84bc 8801 26bd 80de 0dbe f5d3 25be
000002f0: dafb 00be ad20 303a e1ce 2d3c 0155 fbbd
00000300: 2085 09be ec07 9dbe e727 053e fda9 853e
00000310: a9fb 75bb 2057 d0bd 065c ad3d 0f70 a03d
00000320: 6ebb 873d 8f9f 8dbe 9e22 13bd e78d c53c
00000330: fbe8 273e 80b2 823e 009a 38bd 8e50 f0bd
00000340: 0f81 3cbd d4f2 813e c6dc d6be c22b 17be
00000350: 60e3 eb3d dea3 223c fc50 0a3e f876 95be
00000360: d0be 8ebe f6ba f8bb f43d c6bd f162 2b3d
00000370: 4181 eb3d f13a 34bd 32dd 77bd 40f6 a7bd
00000380: 9365 1c3e 6514 29be 669a f6bc 268e 5ebe
00000390: fca1 81bd 5263 a1bd 1cfd 0bbd 1f67 1ebe
000003a0: 6a4f bebd 391a 96bd 702b 50be f618 83be
000003b0: 9646 98bd 1598 70be 4242 36bd 6f46 e5bd
000003c0: 9eed c43d d352 43be 30a7 eebd 40a3 c13d
000003d0: a520 dcbd c184 953d beac 2c3e abe8 60be
000003e0: c5c4 c3bd a125 34be 17d2 25be c528 15be
000003f0: f8ff 9dbb ea50 eb3d 1d9e 02be 28d3 88bb
0.21800397 0.090349026 -0.056274496 0.15152599 0.21347907 -0.075199954 0.057593 -0.14661947
0.00938883 0.14538161 0.060723733 0.17196853 0.17283309 0.198026 0.120400846 0.018895905
-0.103288636 -0.13980024 0.15244064 -0.01388306 0.13255136 -0.011939736 -0.016166922 -0.03906317
0.3309442 0.03277301 0.24745545 0.10414857 0.18782169 -0.22024354 0.15186922 0.22220954
-0.22060423 0.013200031 0.18511671 -0.12336762 0.2790045 0.23297489 0.1817022 0.08486198
-0.020094914 0.07028927 -0.07471255 0.00073473994 0.0024142805 -0.0034052897 -0.10449609 -0.22814853
-0.21906926 0.061284218 0.12183593 -0.027319465 -0.19497707 -0.02018059 0.048207354 -0.12953648
0.012148684 -0.016597074 0.01577529 0.029885689 0.07309193 -0.09603045 0.12397322 0.07699247
0.0017184761 0.09144599 -0.18752487 -0.10729107 -0.054073673 0.21241917 0.11770823 0.15463148
0.073138766 0.063574545 0.07352605 0.078852035 0.0070052333 0.0012371627 -0.087173596 0.007149256
-0.109873176 0.047483325 0.17172042 -0.022232085 -0.11419672 -0.14858873 -0.041568752 -0.19037472
0.0137748765 0.103090994 0.04410108 0.13438986 0.22179705 -0.24061906 0.14959823 0.0796434
-0.08376215 0.056281686 0.012152881 -0.053876918 0.047678355 0.04061947 0.011445438 0.14548816
-0.026550911 -0.10628434 0.1515795 -0.030399341 0.028608732 -0.13124041 0.045306098 -0.04532397
0.009902921 0.010494083 0.023519203 0.07271368 -0.06016032 -0.13103361 -0.0038965805 -0.016851462
-0.050678097 0.09515537 0.09626357 0.23171318 -0.101755 -0.080334894 -0.057290785 -0.11912504
0.16070959 0.063702255 0.12922989 0.059274103 0.070703045 0.15282176 0.14359055 0.17037003
0.15639232 0.20490125 0.087824665 0.07333262 -0.11165011 0.028633878 0.020811768 -0.009640653
0.16138579 0.099026814 0.1130937 0.18306917 0.14731905 0.10890955 0.055445313 0.20406036
0.11216567 0.14988214 -0.17069855 -0.031480595 -0.03743437 -0.18482408 0.024811035 -0.060508613
0.005211291 -0.12124545 -0.00029857998 0.035151765 0.15348819 0.06627356 0.21303459 -0.2172818
0.0009015213 0.25599447 -0.08429145 -0.13654202 -0.08467869 -0.05248383 0.044987004 0.06531931
-0.07839538 0.13024998 0.020913286 -0.24943571 0.0499205 0.058683187 -0.121649064 0.33818302
-0.016173096 -0.040528804 -0.13854408 -0.16194136 -0.12596074 0.0006718736 0.010608406 -0.122720726
-0.1342969 -0.30670106 0.13003503 0.26106253 -0.0037534034 -0.10172868 0.08464818 0.078338735
0.06627546 -0.27660796 -0.035921685 0.024115516 0.16397469 0.2552681 -0.04506874 -0.117341146
-0.046021517 0.25380576 -0.41965312 -0.14762786 0.11517978 0.009926764 0.13507456 -0.29192328
-0.27879953 -0.007590647 -0.09679785 0.041842405 0.114992626 -0.044001523 -0.060513683 -0.08201265
0.15273122 -0.16511686 -0.03010292 -0.21733913 -0.06329724 -0.07880272 -0.03417693 -0.15469025
-0.09292491 -0.0732922 -0.2032907 -0.2560498 -0.07435338 -0.23495515 -0.044496782 -0.11195075
0.096156344 -0.19074564 -0.11652982 0.094549656 -0.10748414 0.073007114 0.16862771 -0.21963756
-0.09559015 -0.1759248 -0.16193424 -0.14566334 -0.0048217736 0.114900425 -0.12755628 -0.0041755624

conv7.bias f4 [16]
00000000: faef edbb 32f6 11bd 4e36 febd f168 b8bd
00000010: 6c41 363c a2b0 34bb 7c49 a3bd 6f6f b5bb
00000020: f5c0 343d 0a07 49bd 70fb aa3c a7ca a33c
00000030: 719b 36bd 89bd f1bd c737 f9bd 6411 3d3d
-0.0072612735 -0.03563518 -0.124127015 -0.09004391 0.011123996 -0.0027571102 -0.079730004 -0.0055369656
0.04412933 -0.04907898 0.020871848 0.019994093 -0.044581834 -0.11803729 -0.12168842 0.046159163

bn7.weight f4 [16]
00000000: 3c14 843f 3afc 793f 91e1 963f eef8 6d3f
00000010: fc09 783f e883 7d3f dd14 843f b3f1 7a3f
00000020: d464 8c3f e74d 863f 2501 733f e67d 853f
00000030: 7b93 823f a185 723f 2b9e 793f 3fb6 523f
1.0318675 0.9765049 1.1787587 0.9295796 0.96890235 0.990294 1.0318867 0.98025054
1.096827 1.0492524 0.9492362 1.0429046 1.0201257 0.9473515 0.9750697 0.82309335

bn7.bias f4 [16]
00000000: 6540 22be ccba 4cbd cf3e 653c d3c5 203e
00000010: dc0c abbd 1a5c 973d 97b0 07bb 82c0 8a3c
00000020: 6c6e e13d 83bb 39be 6423 3c3e 18a0 a03d
00000030: 1e9e e13d 18dd b23c 9405 16be ac6d 0abe
-0.15844877 -0.04998283 0.0139920255 0.15700464 -0.08352062 0.07390614 -0.002070462 0.016937498
0.110073894 -0.18137936 0.18372875 0.078430355 0.110164866 0.021833941 -0.14650565 -0.13518399
