ckpt/seisbench_skynet.pt (torch, 364951 bytes, 134 tensors)

conv1.weight f4 [8, 3, 7]
00000000: ff2b 903e cd0b 063e 3bb9 083e 51bb 15bc
00000010: 39d6 02be 4c09 f4bd ac34 99be 6e4d 82be
00000020: f58b 0ebe af97 82bd 7936 85bc b077 083e
00000030: 2bab ca3d 81a8 6e3e f206 423e 62de 3b3d
00000040: eab8 20bd 7780 eabc 3558 9dbd 24a9 00be
00000050: 209a fc3c a704 633e 4cce 90bb 8aa9 2c3c
00000060: e04e 19bd 4ff6 7cbd 84e1 dc3c fa61 2fbe
00000070: 2e6a 963e 89a2 3c3e 16f9 573e daa1 0bbd
00000080: 95e5 12be c692 7cbe 9460 8dbe 3fbe 053d
00000090: 5926 5c3c 14e5 683d 253d 97bd af6d e93b
000000a0: 1ee2 e43b b87e 3dbd ef55 253e a777 f83c
000000b0: 2add 943b 756a 353e dc40 513e eeff 283d
000000c0: 24be 1b3d 250b 283e 4c01 e13d d60d ad3b
000000d0: 331c 9e3d 38fb 913e 9c80 5e3d 4a99 4b3e
000000e0: d86f 51be 4912 e1bb 3bed 23be 59a6 9bbe
000000f0: 76d3 62be fe7b 1bbe f4c3 dcbd 224d ac3c
00000100: d578 b43d c30c 5a3d cbd9 733c 3051 afb9
00000110: 15a5 08be 4956 bbbd 1b2c 3fbd 6635 c13c
00000120: 711b a9bd 58d0 f53c 716d ce3c b40e d53d
00000130: 2ce9 3fbd bfb4 ccbe 47b0 a2be 266a ccbd
00000140: 55e6 7a3d a4c6 233e 496c 8d3e 65ea c23e
00000150: 4ee5 573e a6ca 43bc 65b0 103e 8ec6 b43d
00000160: 6e82 a33d 696e 62bc d39f 06bd 8381 373e
00000170: fc58 1b3e 6127 0a3c c1ca 813e e55b 2d3e
00000180: a062 61bc b342 9bbd 0daa 52be 6b23 e9bd
00000190: 273e 4abd bb9d fabd b104 04be 7924 5bbe
000001a0: 8ac4 a4be 2215 86be 79ca 363c c91e 4ebd
000001b0: 6e91 7dbc 52ff be3d 9864 d1bc 5ad4 683e
000001c0: b552 92be 6ce6 44be 5da0 4bbd fc37 583d
000001d0: 37f8 1f3d d22f 403e c19c 7b3e 151d cfbc
000001e0: e5dc 763c e93b ed3d abe2 5b3d 61a2 90bc
000001f0: 3571 19bd f1c0 b2bd fdb3 88be c5b5 56be
00000200: 1de2 87bd 3e5f 353e a615 803e 19d6 a33e
00000210: 8bbb 573e 9095 bbbd b941 6cbe 7af2 91bd
00000220: 6f59 55be bff9 1a3d a099 1d3e 09dd c33c
00000230: fcd7 d4bd c54d 543d b0de 503d f3ca 433d
00000240: 2280 d2bd 3483 17bd 7eda 6c3d 8ffd 103d
00000250: d93c 843c 2e0a 5abd 65ab 9ebc 030d 45bd
00000260: 0cc6 dfbd 0e8b 3a3d 879e 283d 590c c53d
00000270: cd41 b43b a9d2 773d d05e 4fbd 4933 923c
00000280: f088 30be 18e5 9f3e ffc6 613e 80fe b83e
00000290: 5372 753a cfec 7dbe 17cf 5fbe 2b1a 92be
0.28158566 0.13090439 0.1335191 -0.009138898 -0.12777032 -0.11915836 -0.29922998 -0.254497
-0.13920577 -0.063765876 -0.016261326 0.13326907 0.09895929 0.23306467 0.18947962 0.045866378
-0.039238848 -0.02862571 -0.0768284 -0.12564522 0.030835211 0.22169743 -0.0044191238 0.010538468
-0.037428737 -0.061758336 0.026963003 -0.17127219 0.29377884 0.18421377 0.21091112 -0.0340899
-0.14345391 -0.24665365 -0.27612746 0.032652136 0.013436877 0.05685909 -0.07384709 0.007123671
0.006984963 -0.046263427 0.16146062 0.030330492 0.0045429664 0.17716391 0.20434898 0.0412597
0.03802313 0.16410501 0.109865755 0.0052811904 0.07720222 0.28511977 0.05432187 0.19882694
-0.20452821 -0.006868635 -0.16008465 -0.3040035 -0.22150978 -0.15184018 -0.107795626 0.021032874
0.088121094 0.053234827 0.014883469 -0.0003343909 -0.13344224 -0.09147317 -0.04667292 0.023585033
-0.08257187 0.030006573 0.02519867 0.10403195 -0.04685323 -0.39981648 -0.31775114 -0.09981184
0.061254818 0.15993744 0.27621678 0.38069454 0.21083567 -0.011950171 0.14129789 0.08826934
0.07983862 -0.013820269 -0.032867264 0.17920499 0.15170664 0.00843224 0.2535 0.16929586
-0.013756424 -0.07581081 -0.20572682 -0.113837086 -0.04937568 -0.12237116 -0.12892415 -0.21400632
-0.32181197 -0.26187998 0.011156672 -0.050322328 -0.015476568 0.09326042 -0.025560662 0.22737256
-0.28578725 -0.19228524 -0.04971348 0.052787766 0.039055075 0.18768242 0.24571516 -0.025282422
0.015067314 0.115836926 0.053682964 -0.017655553 -0.03746148 -0.08728207 -0.2669982 -0.20967777
-0.066349246 0.17712113 0.25016516 0.3199928 0.21067636 -0.09159386 -0.23071946 -0.07126327
-0.20834897 0.037835833 0.15390635 0.023909109 -0.10392758 0.05183198 0.05099362 0.04780097
-0.10278346 -0.03699036 0.057825558 0.035398062 0.016142296 -0.053232364 -0.019368837 -0.048108112
-0.10926446 0.04554277 0.04116681 0.09621496 0.005501008 0.060503636 -0.05062753 0.01784672
-0.17239738 0.31229472 0.22048567 0.36131668 0.0009363044 -0.24797367 -0.21856342 -0.2853559

conv1.bias f4 [8]
00000000: 17b0 49bb 6603 53be 8c03 cc3d 0c0b 09be
00000010: 5586 31bd 8197 92bd b141 02be 39da 973d
-0.0030775124 -0.20606765 0.09961614 -0.1338312 -0.043341 -0.07157803 -0.12720372 0.074146695

bn1.weight f4 [8]
00000000: e1e8 d83e 5da2 093f 38dc 943e 1c3d 043f
00000010: bdb0 cd3e b811 043f 9d2d ad3e 5d2b f53e
0.42365173 0.5376337 0.29074264 0.51655746 0.40173903 0.51589537 0.33823863 0.47884646

bn1.bias f4 [8]
00000000: 0e6e 7540 8f48 02bf 6c8b 503a bf2c 3340
00000010: 6c7b 91ba 22d8 4940 b622 afbc 2ba4 0640
3.8348422 -0.50891966 0.0007955346 2.799606 -0.0011099405 3.1538167 -0.021378856 2.10377

bn1.running_mean f4 [8]
00000000: 330f 4bbb 760d 53be 9629 d23d 922c 09be
00000010: 4b9f 27bd 62b3 92bd b1d5 01be a81d 973d
-0.0030984401 -0.20610604 0.10261838 -0.13395908 -0.040923398 -0.07163121 -0.12679173 0.07378703

bn1.running_var f4 [8]
00000000: f68f ca3b a4ac b13b aa5b 213e 32e7 173c
00000010: 2804 f83d 4275 913b 13ad cd3c 5261 1e3c
0.0061817123 0.0054221917 0.15757623 0.00927143 0.12110168 0.004439027 0.025106942 0.009666758

conv2.weight f4 [8, 8, 7]
00000000: 009a 723e a137 dc3d ed51 053e 46b5 2b3e
00000010: 40e1 523e d1ee e93c 6168 6fbe 5e1b d43c
00000020: e28e ea3d 7dd8 29bd 39e7 dfbc 2af5 193c
00000030: 20e5 dcbb dc41 0d3e c162 b4bd 3132 8d3d
00000040: 37db ba3c 2609 0e3d dcee 82bd cafc cabd
00000050: 97cc 5bbd 3719 bbbd fd52 a7be 537e d7be
00000060: eb8f b9be eff8 7bbe b3c8 dbbc ef95 9cbd
00000070: f20e 59bd 85c6 c73d 2299 b73d 3f4e bbbd
00000080: 2ad1 a33d a18b a23b 2092 9e3d c3fa 4c3e
00000090: 5e15 d03d fbc1 543e 65ae f93d 052e f63d
000000a0: 7445 203e 6bce 563e 3abb ad3d d777 03bd
000000b0: 6d4e b73b 0d87 15bd e045 3b3d d909 3ebd
000000c0: abab 9c3d febb b3bd 1a39 ba3d 7e01 893e
000000d0: 614e 3f3e 0a74 ed3d 8451 dabb edaf 35bd
000000e0: 93bf 02bf 00b6 72be 3ed2 aebd e786 603c
000000f0: 3f49 d2bd 7877 ef3d 8938 1f3f 8013 923d
00000100: 6063 84bd 12de 123d 5bd1 2b3d a9a6 9b3d
00000110: e429 2bbc ffd7 e1bd 7768 6abd f04e 193d
00000120: ea46 88bd 6974 ec3d c429 9bbc 01d4 a9bc
00000130: b837 2a3d 4bdc c4bd 5489 ac3d efc2 3c3e
00000140: 1fb0 1a3e 2a4c e83c 7a84 c03d d8e3 3e3c
00000150: 7a0e 96bc 6e84 58bc 5ae0 013d 0c7a 173d
00000160: 0106 e9bc d9cd 67bd 7531 343d cff8 cb3e
00000170: f58b 763e d40e 0a3e d23f 5e3e bef5 073e
00000180: 4069 a83d ec28 1e3e 9a0f ac3d 46c3 24bd
00000190: 65f4 4bbc 71fc 88bc c820 5bbd 4d25 bd3d
000001a0: fd0a 363c 2b9e c0bd 92d6 c4bd 2732 d9bc
000001b0: ffed d23a 5258 cbbd c6c9 99bd 4513 d6bd
000001c0: d64c c53d 02da f23d bc4c 803c 5529 28bd
000001d0: 9a3c a3be c4dd 0b3d 86cf c83c e717 e33d
000001e0: f1bd 86bd 1e55 f8bd e8d1 a5bd 774d 313b
000001f0: d503 923d 1cd7 dd3d 91b8 ef3d 18bd 0839
00000200: c040 06bd 0d57 07bc 73dd 1f3d 86e2 adbd
00000210: 29d6 eebc 2d48 5fbe ac6b bfbd 5066 023d
00000220: 441f a93e e9d0 1b3e e176 e43d 761c 9bbe
00000230: cebb cdbd ef70 943d e539 bebd a694 123d
00000240: b2eb 37bd b4ee 8bbb 0ca7 163e 219f d8bb
00000250: 8b02 463c 940a 82bc aa4e 29bd 1ca5 30bd
00000260: 6ccf 86bc 525b e73d a46d 4c3d 94d9 733c
00000270: 6c19 a23c 71d8 02be e6f8 30bd 0873 af3d
00000280: 0ad5 ff3b e054 b33e 8d65 213e cb7c 4abe
00000290: caa7 8fbe 747c adbe ac06 e2bc 4381 af3e
000002a0: ed8a 203f 68be 693e 849b 0e3e adab 443e
000002b0: 188b 173e a9c3 8d3d 3871 cebe 3cd5 87bc
000002c0: b236 013e f060 803d 3dd6 27bd 22b9 93bd
000002d0: eead ef3c bbf4 be3c 9b86 ffbb 03d6 5dbd
000002e0: e8e0 643d 66c2 99bc 26df f83d 1095 00bd
000002f0: ee29 ecbc 1c8e cd3e ebda e63d e1c9 5b3e
00000300: 7235 3c3e b23d 3d3c 8921 fa3d 2c9f 8ebb
00000310: 253e 18bd ae48 973d fff0 5dbb 6693 533d
00000320: f4ad a6bd 8953 97bd 3e57 6c3d bd80 e43d
00000330: cde4 253b d8df 313e 2c80 a33d cead 173e
00000340: f681 1b3e 646b 773e a3e1 62bd 62e2 493d
00000350: 1331 ae3d 6f3b c93c f8c5 283d 3f5d a9bd
00000360: 6c1a e3bb c2c3 d9bd 5471 e5bd 2c03 88bd
00000370: 0893 2bbe ac2b 14be ab28 e63b df6d babd
00000380: 136f 40be b412 893c 1081 00be ae01 bdbd
00000390: 8465 30be 2efa cdbd 2f1b 19be 15f9 1cbe
000003a0: af5e c4bd 6060 6a3e 6d06 b73e 5247 863e
000003b0: 1b1a bfbc ffe5 22bb 0c99 1bbd 8cc3 533d
000003c0: bc78 a53d c7de 2bbd 7040 53bd 03ee 443d
000003d0: 19b8 75bd 6f2c 2b3b f157 46bd ea69 08be
000003e0: 4227 dbbc 8277 41bd ada8 943c 93f0 2cbd
000003f0: 85ba 193e 1c71 ef3c e48f 1fbd 2b90 8cbd
0.23691559 0.10752798 0.13019533 0.16768369 0.20593739 0.02855626 -0.23379661 0.025891956
0.11453034 -0.041466225 -0.027331935 0.009396831 -0.006741181 0.13794655 -0.08807898 0.06894339
0.022809608 0.034676693 -0.06393215 -0.09911497 -0.05366191 -0.09135669 -0.32680503 -0.42088565
-0.36242613 -0.2460668 -0.0268291 -0.07645785 -0.05299277 0.097546615 0.08964755 -0.09145784
0.07998879 0.0049604927 0.07742715 0.20017533 0.101603255 0.20777123 0.12191466 0.12020496
0.15651494 0.2097718 0.08482976 -0.03209671 0.005594066 -0.036505748 0.045720935 -0.04639611
0.076499306 -0.08776091 0.090929225 0.2675895 0.18682243 0.11594398 -0.0066625495 -0.04435723
-0.5107357 -0.2370224 -0.08536194 0.013704038 -0.10267877 0.11692709 0.6219564 0.071326256
-0.06464267 0.035856314 0.041947704 0.07600147 -0.010446999 -0.11027526 -0.05722853 0.037428796
-0.06654151 0.11545641 -0.018940814 -0.020730974 0.041557044 -0.0961233 0.08424631 0.18433736
0.15106247 0.02835663 0.09400268 0.011651002 -0.01831745 -0.013215167 0.0317081 0.036981627
-0.028445246 -0.056592796 0.04399248 0.39838263 0.24076827 0.13482219 0.21704033 0.13277337
0.082232 0.15445298 0.08401413 -0.04022529 -0.012448405 -0.016721936 -0.05349806 0.0923563
0.011111018 -0.09405168 -0.096112385 -0.026513172 0.0016092657 -0.09928955 -0.07509188 -0.10452894
0.09633796 0.11857988 0.01566159 -0.041055042 -0.31882173 0.03414704 0.024513017 0.110885434
-0.06579197 -0.1212561 -0.08096677 0.002705423 0.07129637 0.108320445 0.11705125 0.00013040414
-0.032776594 -0.008260501 0.03902955 -0.084904715 -0.029154854 -0.21804877 -0.09346709 0.031835854
0.33031666 0.15216412 0.11155487 -0.3029515 -0.100455865 0.07248103 -0.09288386 0.035786293
-0.04490251 -0.004270399 0.14712161 -0.0066107665 0.012085567 -0.015874185 -0.041334786 -0.04312621
-0.016456328 0.11296715 0.04990925 0.014883418 0.019787513 -0.12777878 -0.043206118 0.08566862
0.0078073787 0.35025692 0.15761395 -0.19774167 -0.280577 -0.33884013 -0.027591072 0.34278306
0.62711984 0.2282654 0.13926512 0.19206114 0.14799154 0.06922085 -0.40320754 -0.01658117
0.12618521 0.06268489 -0.040975798 -0.07213046 0.02925774 0.023310056 -0.0077980286 -0.054159176
0.05587855 -0.018769454 0.12151937 -0.031392157 -0.028828587 0.40147483 0.11272224 0.2146373
0.18379763 0.011550354 0.122134276 -0.004352471 -0.03716864 0.073869094 -0.0033865569 0.051654242
-0.08138648 -0.0738898 0.057700388 0.111573674 0.0025313378 0.17370546 0.07983431 0.14812395
0.15186295 0.2416206 -0.055390965 0.04928816 0.08505454 0.024564473 0.041204423 -0.082697384
-0.00693064 -0.10633041 -0.11203256 -0.0664123 -0.16755307 -0.14469784 0.007023891 -0.091029875
-0.18792371 0.016732551 -0.12549233 -0.09228836 -0.17226225 -0.100574836 -0.14951776 -0.15329392
-0.09588372 0.22888327 0.3574709 0.26226288 -0.023327878 -0.0024856327 -0.037987754 0.05170016
0.08079669 -0.041960504 -0.051575124 0.04807855 -0.059990022 0.0026119014 -0.04842371 -0.13321653
-0.026752118 -0.047233112 0.018146837 -0.042221617 0.15012558 0.02922874 -0.038955584 -0.06863435

conv2.bias f4 [8]
00000000: 82ba de3d c300 67bd c149 383d e62d 7abd
00000010: 24aa 743d 13b7 d23d fd68 c23c 8ce2 9b3c
0.10875417 -0.05639721 0.044992212 -0.06107893 0.05973257 0.10288825 0.023731703 0.019028924

bn2.weight f4 [8]
00000000: 3d5b 4c3f 8af2 e53e 54f6 3e3f e139 093f
00000010: 96b6 dd3e ccad 1c3f ea89 043f 828e 823f
0.7982672 0.44911605 0.74594617 0.5360394 0.43303365 0.61202693 0.5177294 1.019974

bn2.bias f4 [8]
00000000: 74eb f6bc 1d15 5640 168d cf3d 23f7 7040
00000010: 3486 1a3c 80fe 28bc b489 eabd 0621 0d3d
-0.03014157 3.3450387 0.10134332 3.765084 0.009431411 -0.010314584 -0.11452046 0.03445532

bn2.running_mean f4 [8]
00000000: c32b 3840 63f0 7140 8771 33be 8f3e 0241
00000010: ef96 11c1 9888 3640 bdf3 e5bf 6dfc 44c0
2.877671 3.780297 -0.17523776 8.140273 -9.099349 2.852087 -1.7965008 -3.0779068

bn2.running_var f4 [8]
00000000: 16f4 693f a828 d53e 1ffc 643e 27ef 0f3f
00000010: d02e 2f3f 73a9 a13f ca0b 9e3d d591 a73f
0.9138807 0.4163258 0.22361802 0.5622429 0.68430805 1.2629837 0.07717092 1.309138

conv3.weight f4 [8, 8, 7]
00000000: b064 33be 0f94 8abd da68 a43c 7710 fcbb
00000010: ad4e 8c3d c19a 763d b5d8 993d ce9e 9dbe
00000020: ad8b 27be 6681 06be fbbb 59bd 924e cf3d
00000030: fcf8 4b3e 559a c23e 97ee 6cbd 27e6 87bc
00000040: 2be5 723c a0c5 48bc fa01 78bc c015 0b3c
00000050: bd2f 3dbd 265e 9fbe f7dd 1ebe d431 19be
00000060: bc5d 003c b38b d03d db80 433e 7d18 903e
00000070: 752c 253e 6dab 45bd 0fad 703d a7b2 203d
00000080: 79eb cdbd ff7a 073d 3c7a 5cbe 97f2 62be
00000090: cf20 813b 38c0 9ebc cad9 b63c 4525 b53d
000000a0: 10bf 1c3d a519 de3d 45e0 59bd c491 b1bd
000000b0: 34cb 4eba 2d9c 743c d797 5e3c 8393 f33c
000000c0: cf93 be3d fd6d 3f3e e39c ea3d 1629 a83c
000000d0: 9d81 a4bc d59a 15bd c55b d9bd 2428 19be
000000e0: 2ec9 14be 4035 f1bd 1643 c4bd 8c0d 5cbd
000000f0: 0e38 fb3c 2d28 153d e8ca 023e 8717 773e
00000100: e3b3 6e3e 10de b33e 8768 a53e 0ebb 083e
00000110: 016c e03d e863 1c3d 7d22 583d d41c 903c
00000120: 82fa 04bd 67a8 223b 3e9b 75bd 7193 fabc
00000130: ee36 d73b 35ec 9b3d 28dd debc a855 40bd
00000140: d7a8 64be ece7 88be c249 6bbe cfd5 58be
00000150: 22f5 293d 0882 2e3c c29e c23d d33a dc3d
00000160: 20ea 803d 5b18 043e 3568 0d3e 4b32 8cbd
00000170: 3234 42bd a194 8dbc 705f 803c 7165 123e
00000180: 8f92 953d 894b e93d 8d85 793b 2eca 773c
00000190: 28d2 17bb 7253 32bd 8552 6dbd 03ed 84bd
000001a0: 5768 32bd ca6b 5f3e 8657 003e b34b a83d
000001b0: 98c9 0c3d 6178 afbd 953d b9bd 09bc e7bd
000001c0: 0960 d7bd 21d2 45be 23e5 0cbe 1f93 9bbd
000001d0: fea6 d03d 8d5e 113d 64da 603e 04b7 fa3d
000001e0: 6d87 923d a041 bc3d d441 053d d1f5 6b3d
000001f0: 9946 4a3d a75c bdbd 392c 69be 1c0f 2abd
00000200: 521e 59be 4661 d8bd 77bc 0ebf 92ed b2be
00000210: e773 6c3c 8bd5 9e3d 62b1 8a3d 1e04 423d
00000220: 6992 adbc 8320 06be 4355 1abe 428a 6ebe
00000230: f4f4 c0bd 286c 53bd 9b8d 3fbe a00a e5bc
00000240: 57bc d5bd 4012 d6bd ef9b b03d b3e2 8cbd
00000250: cd79 aa3d 55f9 9ebd d5ae c8bd 2d76 0f3c
00000260: abd0 313b 382d 843e 68a7 48bd 4bbd 72bd
00000270: a108 b03c c044 e93c ab8d c63a 8ddb 25bd
00000280: 171d f7bc b2cd c23d dea2 a53d 2d61 1a3e
00000290: e686 fb3d 34be 933d 81c7 fdbd c9b3 bbbe
000002a0: b17c 9a3e 2987 f73d 757c 0f3e 72d7 b43d
000002b0: db8d 00be 98a4 7cbe d8e3 83be c4c9 973c
000002c0: 4301 843d 7dbd 7d3d 9c3e c83d b5bc 203e
000002d0: 1235 f43d f7b5 113e 137b 33be 9424 02be
000002e0: 06ae 94bd bc61 31bd 2c5f b0bd bc5a 643d
000002f0: 762d 4dbe 4476 65be c3bb 19be ae45 26bd
00000300: 8423 77bd b743 423d c074 ae3d 9bf0 473e
00000310: 66ae b43c 11a9 bc3d f44f 013d 5b73 ee3d
00000320: e6c0 c23d efae d63d 0493 d0bd 4422 843e
00000330: c1d2 453d 08aa 4f3c ed45 003d 54a2 9ebd
00000340: ecd0 5cbd cc2a 3abd d5e6 adbd b1f4 53bd
00000350: f71d 11bd c13a 49bd 3faa 6fbd 90bd 67bd
00000360: 21a3 4ebd 9e95 82be 1dbb 24be 57f4 aabd
00000370: d1b6 113d 5848 413d 9c82 713d 0845 953e
00000380: 58f8 0d3e f805 133e a539 d73d 2734 c53c
00000390: 7218 003c 54c5 48bd 50b5 09be df33 85be
000003a0: feb6 67be 721a b0be 1bc0 95be cf40 0fbe
000003b0: 5d10 d7bd 4618 633c 48e0 79bd 5921 12bd
000003c0: 459c df3c dbfd d53b 0f48 aa3c 5e5a e03c
000003d0: 4569 afbc 0b06 a1bd 068b 51bc 0322 9c3d
000003e0: cf64 673e cae2 673e 3cf5 543e 9d06 993e
000003f0: 17a8 d5bd 771d 363c af01 96bd 6352 d5bd
-0.17518878 -0.06766521 0.020069528 -0.0076923924 0.06850944 0.06020618 0.07512037 -0.3078522
-0.16361876 -0.13135299 -0.053157788 0.10122408 0.19919199 0.3800837 -0.057844725 -0.016589237
0.014825146 -0.012254149 -0.01513719 0.008489072 -0.046188105 -0.31126517 -0.1551436 -0.14960414
0.007834848 0.101828955 0.19092123 0.28143683 0.1613024 -0.048259187 0.05875879 0.039232876
-0.100546785 0.033076283 -0.21531004 -0.22162853 0.0039406787 -0.019378766 0.022320647 0.08844999
0.03826815 0.10844735 -0.053192396 -0.08670381 -0.0007888556 0.014929813 0.013586006 0.029733425
0.09305536 0.18694301 0.11455705 0.020527404 -0.020081336 -0.036524612 -0.10613207 -0.14956719
-0.14529869 -0.11777735 -0.09583108 -0.053723857 0.030666377 0.036415268 0.12772715 0.24130069
0.23310809 0.35130358 0.3230631 0.13352606 0.109581 0.038181216 0.052767266 0.017591871
-0.032465465 0.0024819614 -0.059962504 -0.030587884 0.0065678274 0.07613412 -0.027205065 -0.04695669
-0.22330032 -0.26739442 -0.22977355 -0.21175312 0.041493542 0.010651119 0.09502937 0.10753407
0.06294656 0.12899916 0.13809283 -0.0684553 -0.04741306 -0.017282786 0.015670508 0.1429651
0.073033445 0.1139136 0.0038073987 0.015123887 -0.0023166034 -0.04353661 -0.057940025 -0.06490519
-0.043556537 0.21818462 0.12533388 0.082175635 0.034371942 -0.08567882 -0.09044949 -0.11315162
-0.10516364 -0.19318439 -0.13759284 -0.075964205 0.10188101 0.03549056 0.2195831 0.12241939
0.07154737 0.091922045 0.03253348 0.057607476 0.049383733 -0.09246188 -0.22770776 -0.041518316
-0.21202973 -0.105654284 -0.55756325 -0.34946877 0.01443193 0.07755574 0.06772114 0.047367208
-0.021187978 -0.1309834 -0.15071587 -0.23294929 -0.09421721 -0.051616818 -0.18706362 -0.027959168
-0.104363136 -0.104527 0.08623492 -0.06879177 0.08324013 -0.077624 -0.097989716 0.008756203
0.0027132432 0.2581575 -0.048987776 -0.059262555 0.02148849 0.028475165 0.0015148422 -0.040492583
-0.030165238 0.095118895 0.08087705 0.15076132 0.12281589 0.07214013 -0.12391568 -0.36660603
0.30173257 0.12086327 0.1401232 0.088301554 -0.12554114 -0.24672163 -0.25759768 0.018528827
0.06445553 0.06194829 0.09777567 0.15696986 0.11924185 0.1422957 -0.17527418 -0.12709266
-0.07259755 -0.043306097 -0.086119026 0.055750594 -0.20036873 -0.22408396 -0.15013032 -0.040593795
-0.060336605 0.04742786 0.08518362 0.19525377 0.022055816 0.09211934 0.03157039 0.11643096
0.09509449 0.10482585 -0.10184291 0.25807393 0.048296694 0.012674816 0.031316686 -0.077458054
-0.05391018 -0.04545097 -0.08491293 -0.051747028 -0.035428967 -0.049128298 -0.05851197 -0.056577265
-0.05044854 -0.25504774 -0.16087003 -0.083473854 0.035574738 0.047188133 0.05896245 0.2915423
0.13864267 0.14357746 0.10509042 0.02407272 0.007818328 -0.04901631 -0.13448071 -0.26016137
-0.226284 -0.34395176 -0.29248127 -0.13989566 -0.10501168 0.013860768 -0.061004907 -0.035676334
0.027296195 0.006530506 0.020786313 0.02738684 -0.021412501 -0.07862481 -0.012789493 0.07623675
0.22597049 0.22645107 0.20796674 0.29887858 -0.10432451 0.011115423 -0.0732454 -0.10416105

conv3.bias f4 [8]
00000000: 708b 05be 9cd1 27bd 704b f1bd 6203 6d3d
00000010: b90d 8a3c 90bb 8dbd 02ab c53d b062 f93d
-0.13041472 -0.040971383 -0.11781967 0.057864554 0.016852247 -0.0692054 0.09651758 0.12177026

bn3.weight f4 [8]
00000000: 688e 203f b492 7b3f 4c30 833f a7d3 6d3f
00000010: c53d 9c3f 4713 9e3f 4cb6 423f b37d 7c3f
0.62717295 0.98270726 1.0249114 0.9290108 1.220635 1.2349633 0.7605941 0.986293

bn3.bias f4 [8]
00000000: 53f3 debc 6700 d1be a159 d7bb 956e 3c3e
00000010: b047 fe3e e12f 773e 9b21 fb3d 66a6 41be
-0.027215635 -0.4082062 -0.006571964 0.18401559 0.49664068 0.24139358 0.12262269 -0.18911132

bn3.running_mean f4 [8]
00000000: 7cf5 4fbe d291 a83f 02e3 32bf 427c c93f
00000010: 4fc9 82bf 38fe d73f 36f4 3e3e f108 e2bf
-0.20308489 1.3169501 -0.69877636 1.5741045 -1.0217685 1.6874456 0.18647847 -1.7658979

bn3.running_var f4 [8]
00000000: 7b4e bb3e b95c 1e3f d475 793f 0e9b 293f
00000010: 3f22 183f ca75 4d3f a636 223f ac63 423f
0.36583313 0.61860234 0.97445416 0.6625222 0.59427255 0.80257857 0.63364637 0.7593334

conv4.weight f4 [11, 8, 7]
00000000: c282 6f3d 5e89 dbbc bda4 2a3e 70d9 7cbd
00000010: e951 7f3e ca3f 3dbd fc3a c83c 2131 543c
00000020: bbaf 033d bea5 0a3e c7b5 c7be e4ea 323e
00000030: d2c3 873d 0e4a 273c e3fb 16bc 94ba e13d
00000040: 71c4 f83d 947f 1abe a86a adbc 35f8 ff3c
00000050: 6574 03bd dffd 37bd 0f47 0b3e 7fc4 9d3d
00000060: 0a93 1fbe 8619 f73c d4d3 313d 1317 cebd
00000070: ff22 533d ea6d 77bd 40da ffbd 6eeb bf3e
00000080: 6d7a 2abe bf2e b5bd 12e1 b63c 5e62 d43c
00000090: b1e1 94bd b7df 0cbe 8039 bf3e 1f94 0dbe
000000a0: 8791 84bd fae8 67bb 5db2 a63c f903 0d3d
000000b0: de69 853d dd6a 85bc fa24 833b e437 4d3b
000000c0: af98 76bb 607d 713a 6b21 9dbc 8654 9b3d
000000d0: f68a 91be eb6a 0c3e 2dfe 8a3b 77d9 ad3c
000000e0: 4221 72bd 04e7 663d e22f 4c3e c398 e53d
000000f0: e236 863e db7c 0d3e 5e80 003e ca7c bd3c
00000100: a1d8 0d3e 85a2 b73d 0b8e 64be b5c9 15be
00000110: 36e6 ae3d 69e1 173e 0c45 5a3e 31a4 26be
00000120: 32b2 0fbe 5f46 283e c1b1 48be 5d02 8a3e
00000130: e6c1 4f3e d321 d8bd dbd4 31bc ca60 17be
00000140: 526c 45bd 1703 a23d 93d0 573d e6ee cbbc
00000150: 7e15 dbbd fee4 4dbd 2d2b d23c 9753 2c3d
00000160: 9e76 0a3d 1809 efbd bdf5 f0bd 4558 883d
00000170: a03a 833d d4f3 ca3d 4587 85bd a19c 0cbd
00000180: f58c b7bd 03f8 603d 5483 9bbe cd2b 97be
00000190: 8b65 ebbd fa31 09bf bae8 25bd a440 33be
000001a0: dad1 c8be 506a 47bd 30e8 33bd 06c5 81bd
000001b0: 87b9 0abe 04a7 f2bd 63e1 793b 2816 46bd
000001c0: 6a0b ccb9 384a 31bd 5aef 9ebc 1a46 96ba
000001d0: ab21 143e 38e6 a93d a4ee 423d b567 92b9
000001e0: c510 f53c 940e 89bb c3d3 f5bc afd4 bb3b
000001f0: e7d3 473d 6365 36bd 4372 21bd 9ec0 11bc
00000200: 0e73 123d 045f a43c a7ee 0bbd c41c 6ebd
00000210: f837 1abe a48d b8be ae54 87be 8744 6abe
00000220: 3174 6ebe 380d 8cbe 1eb2 7cbe 58c1 b6be
00000230: c2ab 2d3b 4c60 5c3c 9f7a d73c 9b8b 483c
00000240: 18f5 c7bb 001d 473c dc09 abbc 7811 3bbd
00000250: 21bd 00bd 73c8 a6bd 755e 9cbd 4949 41bd
00000260: a785 abbd 94fa 9abd a460 c9bc 561c 47bd
00000270: c9b1 0bbd 8a74 9bbd 13cd b9bd 2019 c2bd
00000280: 0e70 83bd 5e0a 983e 9d23 763e aef3 233e
00000290: bb83 433e df24 993e e15f 863e 70eb ae3e
000002a0: 4e78 be3d e86d 65bb 58ed 34bd dc1e 823d
000002b0: 78ac 553d fb8c f9bd ab18 3ebc 51b0 56bd
000002c0: c2d5 ee3c 32e6 193d 5b49 e7bd d194 e43d
000002d0: 02c5 37bd e5ba df3b 7999 45bc 861d 81bb
000002e0: 0db0 833e ab1d 83be 38d7 e23d b704 423d
000002f0: 4a1e 063d c87b 2cbd a5d3 c3bc 7455 923c
00000300: 5d6b 9c3d 226f 30be 9000 2f3e f198 b6bd
00000310: d3bd 1639 cd4a 3ebd a54f 31bc 3356 db3d
00000320: 7048 f9bd 2cd9 d13d 0058 26bd 0b57 0abd
00000330: ea50 ab3c 66b1 d73d a749 2bbe 17f1 243e
00000340: 33da 6fbd 3f0f 773c 9b7c 34be 06aa 113c
00000350: 0702 4f3f 14c3 c4bc 2bb3 3ebe 29dc e63d
00000360: bf80 3bbe e7ec e1bb 4613 2cbd 3564 15be
00000370: 4e71 1d3e abcb f9bd 6a75 243d 6088 063c
00000380: 6823 02bf 37da a2be 1736 c5be 7fb4 d5be
00000390: 643b d0be b489 0abf f476 05bf f0f9 793c
000003a0: 4cb8 bfbc 975a ddbc 73e6 8bbc de5a 933d
000003b0: 4647 c33d e60d b0bd 29d5 56bc 3973 24be
000003c0: 7009 8cbd 8187 343e b518 19be 0f58 873d
000003d0: cc4a 4f3e f707 71bd 3ed5 84bd 48c7 bcbd
000003e0: d720 a2be 0d60 373e 0ce9 7e3e 87a5 b63c
000003f0: 3fce 943c 4609 0d3d 5eed 3f3d 101c 373c
0.05847431 -0.0267989 0.16664405 -0.061730802 0.2493359 -0.046203412 0.024442188 0.012951166
0.03215001 0.13539788 -0.39005873 0.17472416 0.06629147 0.010210527 -0.009215328 0.11021915
0.12146843 -0.1508773 -0.021169022 0.031246284 -0.032093424 -0.044919845 0.13601325 0.07703494
-0.15583435 0.030163538 0.043414906 -0.10062995 0.051547047 -0.060407557 -0.124928 0.37484306
-0.16648264 -0.08846807 0.022324119 0.025925811 -0.0726961 -0.13757215 0.37348557 -0.13826035
-0.0647307 -0.0035386668 0.020348722 0.034427617 0.06514333 -0.016286308 0.0040022107 0.003131383
-0.0037627628 0.0009212103 -0.019180974 0.07584481 -0.2842633 0.13712661 0.004241726 0.02122186
-0.05911375 0.056372657 0.19940141 0.112107776 0.26213747 0.1381716 0.12548968 0.023130793
0.13852169 0.08966545 -0.2231981 -0.14627726 0.08540003 0.14832081 0.21315402 -0.16273572
-0.1403282 0.16433094 -0.19599058 0.26954928 0.2028881 -0.105533265 -0.010853971 -0.14783016
-0.048199005 0.079107456 0.052689146 -0.02489419 -0.10697459 -0.050267212 0.025655353 0.042071905
0.03380453 -0.11671656 -0.11765621 0.06657461 0.06407666 0.09909788 -0.06519941 -0.03432906
-0.08962432 0.054924022 -0.30373633 -0.29525605 -0.11493977 -0.53591883 -0.04050515 -0.17505127
-0.39222604 -0.048685372 -0.043922603 -0.06336407 -0.13547336 -0.11848262 0.0038128726 -0.048360974
-0.00038918416 -0.04328367 -0.019401241 -0.0011464984 0.14465968 0.08295864 0.047590867 -0.00027924558
0.029915223 -0.004182646 -0.030008202 0.005732141 0.04878607 -0.044530284 -0.03941561 -0.008896021
0.035754256 0.020064838 -0.034163143 -0.0581329 -0.15060413 -0.36045563 -0.26431793 -0.22877704
-0.23286511 -0.27353835 -0.24677321 -0.35694385 0.002650008 0.013450693 0.026303587 0.012240316
-0.0061022155 0.01215291 -0.020878725 -0.045670956 -0.031430367 -0.081437014 -0.07635204 -0.04718903
-0.083751015 -0.07567325 -0.024582215 -0.048611008 -0.034105096 -0.075905874 -0.09072318 -0.094774485
-0.06417857 0.2969541 0.24037023 0.16010925 0.1909322 0.29910943 0.26245025 0.34164
0.0930029 -0.0035008136 -0.04417166 0.06353542 0.052166432 -0.12185093 -0.011602561 -0.052414242
0.029154662 0.037573047 -0.11293288 0.11161197 -0.044865616 0.0068276995 -0.0120605165 -0.003940287
0.25720254 -0.25608572 0.11076206 0.047367778 0.03274373 -0.042110234 -0.02390463 0.017863013
0.076376654 -0.17229894 0.17090058 -0.0891589 0.0001437583 -0.046458054 -0.010822211 0.107098006
-0.121720195 0.102465004 -0.040611267 -0.033774417 0.020912606 0.10531883 -0.16727315 0.16107593
-0.0585577 0.015079319 -0.17625658 0.008890634 0.8086247 -0.024018802 -0.18623035 0.11272461
-0.18310831 -0.006894696 -0.042010568 -0.14589007 0.15375254 -0.1219705 0.040151037 0.008211225
-0.50835276 -0.3180711 -0.3851783 -0.4173927 -0.4067031 -0.5411637 -0.52134633 0.015257344
-0.02340331 -0.027020736 -0.01707766 0.07195066 0.09535079 -0.08596401 -0.013112345 -0.16059579
-0.068377376 0.17629816 -0.14950831 0.06608593 0.20243376 -0.058845486 -0.06485985 -0.092176974
-0.3166568 0.17907734 0.24893588 0.022295726 0.018164752 0.034432672 0.04685723 0.011176124

conv4.bias f4 [11]
00000000: 5a00 debd 8565 fcbd 549a 07be a3ce 733d
00000010: b158 f4bd 74a8 c53d 77f4 da3d 80d2 0c3d
00000020: de7b 73bc 69af e83d 499e aa3d
-0.10839911 -0.12324051 -0.13242465 0.059523236 -0.11930979 0.096512705 0.10691159 0.034380436
-0.014861075 0.11361582 0.08330972

bn4.weight f4 [11]
00000000: bc53 7c3f a1b7 273f e888 613f c047 303f
00000010: b5f1 2e3f 9dbe 8a3f 3c4f 8c3f 5571 fb3e
00000020: 560b 9a3f d906 673f 50b3 3c3f
0.9856527 0.6551457 0.8809953 0.6885948 0.68337566 1.083942 1.096168 0.49109903
1.203471 0.90244824 0.7371111

bn4.bias f4 [11]
00000000: c910 f93d f99f d93e b8ad 14bf 997a 9f3d
00000010: f509 be3e 75cf 57bc 2d9b c2bb 699c e13d
00000020: 5e2e fabb 5387 b23c 9bc3 0b3f
0.12161405 0.42504862 -0.58077574 0.077870555 0.37116972 -0.01317202 -0.0059389086 0.11016161
-0.007634922 0.021793043 0.54595345

bn4.running_mean f4 [11]
00000000: fef7 06bd 2287 25bf 51a1 57bf a8a5 263e
00000010: 7836 07bf 2439 923d f8f2 9f3d 3b23 46bf
00000020: f565 e4bc 5d34 9d3d d033 163f
-0.032951348 -0.6465932 -0.84230524 0.1627413 -0.5281749 0.07139805 0.078100145 -0.7739751
-0.027880648 0.07676003 0.5867281

bn4.running_var f4 [11]
00000000: bf97 833e 83ee 483f 248b 653e ffba 483e
00000010: 39f6 363f e5d2 be3f f852 5c3f 23e3 493e
00000020: 05fe 8b3f 523a f43e f78e 603e
0.2570171 0.7848894 0.22416359 0.19602583 0.71469456 1.490811 0.860641 0.19715552
1.0936896 0.47700745 0.21929537

conv5.weight f4 [11, 11, 7]
00000000: fec8 54bd 0ebc 043b 3e79 14bd f207 34bd
00000010: 61fb dc3c 796a b4bc 682b 83bc 47d6 443c
00000020: c9fe b4bc f2da 23bd 3269 14be aa62 39be
00000030: f314 2abe f7a3 18be ab27 4f3e 1991 873d
00000040: 0d01 bebd 54b8 67bd f9b5 13be 9246 0dbe
00000050: 8218 8abc 7180 923c 2f79 6d3d 3073 fd3d
00000060: 5ef9 3a3e 1d5b 143e 87a1 da3d d7ae 0a3d
00000070: 5325 6a3d 99f0 c33c 2eb3 0ebc 2834 a3bc
00000080: 7322 95bd abcd 6bbc d09b 573c 0740 303d
00000090: dbcf 983d dcf5 0b3e b15e 1b3e fb93 fe3d
000000a0: 583f a83d de50 653b 9413 663e 26b3 7c3e
000000b0: 1c78 b03e 97f4 d13e aaa9 a63e 6bcf 4b3e
000000c0: bb89 3d3e e4ec 953c e54b 85bc c445 3dbd
000000d0: ac1d 66bd 234b 2fbe 1b95 e6bd 7524 f0bd
000000e0: 5f31 b73c c222 0c3d 6150 da3d 0e12 d83d
000000f0: 1eb2 b73d 53e1 793d a727 9cbc 5bef aab9
00000100: 90d7 bc3d 7bcb f93d 829e 023e 51f0 2c3e
00000110: a50c 883d 4935 963d e216 0abe 1cce 27be
00000120: 5310 6dbe f0f2 77be 7fac 033e 8284 923d
00000130: fb06 553e bbcd 12be 2323 43be 9164 a9be
00000140: c4fa 01bf cd7c bfbe 09cb 90be 84c2 0abe
00000150: 7d28 37bd 35b6 25bd 9e59 203d 0f3e 823d
00000160: ea2a ce3c 74d9 8d3d 0a5a 30bd 326b e33d
00000170: 2303 8d3d 6795 1ebd dd9e 603d 8bd2 47bd
00000180: 133c e0bd 1ea4 1fbd 1d1a 22bc a0ba a1bc
00000190: 026d 81bd 2b38 b1bd 2cff 47bd 4d7d 48bd
000001a0: 3ca7 78bc 6d15 483d 4e56 d13d 2a48 093e
000001b0: 5c74 823e e588 1d3e 5e94 a83d 93f8 b03d
000001c0: 2f20 81bd c646 92bd 5c74 e9bd 88a1 b5bd
000001d0: d233 16bc 7893 783c 4b95 223d cfb3 323d
000001e0: acb1 2c3c 1aa9 2c3c 14d4 653d c2f4 953c
000001f0: f06f 543d 8b7e bc3b be94 1f3e dc40 f03d
00000200: 00a9 483d dcfe 02bd f0ff ffbd f220 aabd
00000210: b841 56be 355e 0ebc 33c4 09bd 2c99 ddbc
00000220: 1d3a dfbb 2d84 7e3a 6f58 0c3c 3c31 fc3c
00000230: 2d14 5cbe bf5b b1bd e94e 19be 0490 e3bd
00000240: dd8b 82bd 2679 aabd 59ab a9bd 824e 953d
00000250: 47be f33d 6e63 583e 66ab 9c3e 2f58 693e
00000260: bc6d 003e 4d35 093e 5f7a c03c 3bf8 123e
00000270: 2e9e 623e 19ab a33e 6761 9c3e 93b9 413e
00000280: aae4 db3d 0796 ca3c 568b 213d bbe0 ccbb
00000290: 10c9 143e 9ca8 f93d c5d3 af3d 8008 cc3d
000002a0: 6b2f 4f3e 87fb fc3d 703b af3d 589b 26bc
000002b0: e155 1abe aa89 e53c ef5d f23d db06 22bb
000002c0: cccc 443c 2644 f83c 11eb 833d 5707 423d
000002d0: d637 633c 5b55 e3bb 386f 1cbd 39ac 8fbd
000002e0: ec83 28be e3a4 b0be 3010 a1be 1e79 8abe
000002f0: eea9 3bbe 2394 543b 5718 793c d8a6 593c
00000300: 5203 363d ccd3 703d 4203 2f3d 1855 e13c
00000310: e824 5cbd 6222 96bc 2bad 39bd 2d35 48bd
00000320: 0bd7 173d ca6a f9bc 27b7 b83c 45f4 a33d
00000330: c008 0b3e 70c3 623e 852f 0f3e 730d d43c
00000340: 8217 95bd 7a1a 30be 6fd5 b83b fab2 48bc
00000350: e67e 06bc 8e09 3e3d 9192 003d 0334 e03c
00000360: 08b2 053c 86c3 c1bb 333b dc3d 495d 453e
00000370: c5d0 a23e 1c77 a43e 64d3 7c3e 9a22 f83d
00000380: 89dd fe3d 6e36 cb3c c39e 103d 2af4 df3d
00000390: ef16 b03d 6489 093e 311e 2a3e 6fbd 42bd
000003a0: 675b 05be 58a5 37be 87a6 8bbe acb8 6ebe
000003b0: 6303 19be ac5c c7bd bb61 513d 6d17 3d3d
000003c0: 7e7e f53d c39e 613e ca9b 843e d6ae 843e
000003d0: c15b f53d 5492 8c3c c4fc cb3d a0d0 e03d
000003e0: df5e 043e 308f 1c3e f45f 9c3d 2909 bc3d
000003f0: 0895 3bbe 2bb3 98be f62b c4be c741 15bf
-0.051949494 0.002025369 -0.036248438 -0.04395289 0.026975336 -0.022023426 -0.016011909 0.012013978
-0.022094147 -0.040003724 -0.14493254 -0.18104044 -0.16609554 -0.14906298 0.20229976 0.06619472
-0.09277544 -0.056572273 -0.14424886 -0.13796452 -0.01685739 0.017883511 0.057976898 0.12375486
0.18259189 0.14487882 0.1067534 0.033858147 0.0571645 0.023918437 -0.008709712 -0.019922331
-0.07281961 -0.014392297 0.013159707 0.04302981 0.0746152 0.13668007 0.1517284 0.12430569
0.08215207 0.0034990828 0.22468406 0.24677715 0.34466636 0.4100692 0.32551318 0.19903342
0.18509571 0.018301435 -0.01627154 -0.04620911 -0.05618064 -0.17118506 -0.11258908 -0.117257036
0.02236241 0.034212835 0.10659862 0.10550319 0.0896952 0.0610059 -0.019061876 -0.0003260326
0.09220803 0.12197014 0.12755778 0.16888548 0.06643037 0.07334382 -0.13485292 -0.16387218
-0.23150758 -0.24213767 0.12858771 0.0715418 0.20803444 -0.14336292 -0.19056372 -0.3308454
-0.5077326 -0.37399903 -0.28279904 -0.13550764 -0.044716347 -0.04045697 0.039147966 0.06359493
0.025166947 0.069262415 -0.043054618 0.1110443 0.06885364 -0.0387167 0.054839004 -0.048784774
-0.10948958 -0.038974874 -0.009893921 -0.01974231 -0.0631962 -0.08653291 -0.048827335 -0.04894762
-0.0151765905 0.04884856 0.102215394 0.13406435 0.254794 0.15384252 0.08231424 0.08641162
-0.06304967 -0.07142405 -0.11399147 -0.088687 -0.009167628 0.015171878 0.039693158 0.04362851
0.010540407 0.010538364 0.056110457 0.018305186 0.051864564 0.00575239 0.15584084 0.11731121
0.048989296 -0.031981334 -0.12499988 -0.08307065 -0.20923507 -0.008689453 -0.033634376 -0.027050577
-0.0068123476 0.0009709027 0.008566006 0.030785196 -0.21492071 -0.08660077 -0.14971508 -0.11111453
-0.06374333 -0.083238885 -0.08284635 0.07290365 0.11901527 0.2113168 0.30599517 0.22787546
0.1254186 0.13399239 0.023495851 0.14352505 0.22130653 0.31966475 0.30543062 0.18918447
0.107369736 0.024729742 0.03943952 -0.006252376 0.14529824 0.12190363 0.08585314 0.09962559
0.20232932 0.123526625 0.08556259 -0.010168873 -0.15071823 0.028019745 0.11834323 -0.0024723324
0.012011718 0.030305933 0.0644132 0.04737028 0.013868293 -0.0069376654 -0.038192004 -0.07015271
-0.16456574 -0.345008 -0.31457663 -0.2704553 -0.18326542 0.003243693 0.015203557 0.013284408
0.04443676 0.058795735 0.042727716 0.027506396 -0.053746134 -0.018326942 -0.04533116 -0.048878837
0.037070315 -0.030446429 0.022548271 0.08005575 0.13577557 0.22144866 0.13982971 0.02588532
-0.072798744 -0.171976 0.0056406776 -0.012249703 -0.008208966 0.04639583 0.031389777 0.027368551
0.008160122 -0.005913201 0.10753479 0.19273867 0.31799904 0.32122123 0.24690014 0.12115975
0.12444598 0.024806228 0.035307657 0.109352425 0.08598124 0.13431317 0.1661308 -0.04754394
-0.13023148 -0.17934167 -0.27275488 -0.23312634 -0.14942698 -0.09734473 0.051118594 0.04616492
0.11987017 0.22033219 0.25900108 0.2591464 0.11980391 0.017159618 0.099603206 0.10977292
0.12926815 0.15288997 0.07635489 0.09181435 -0.1831857 -0.29824194 -0.3831479 -0.58303493

conv5.bias f4 [11]
00000000: 7ab6 b4bd a095 d03c 05e6 2c3d 5aa7 b6bd
00000010: a239 203d f9a4 d9bd 51e4 68bd 1a38 5a3c
00000020: e8fb 6e3c 8bb5 6bbd 2d47 593d
-0.08823867 0.025461972 0.04221155 -0.089186385 0.039117463 -0.10627169 -0.056858364 0.01331904
0.014586426 -0.05754618 0.053046394

bn5.weight f4 [11]
00000000: 4f27 473f a9d7 3f3f 1020 483f 13f9 733f
00000010: c3b6 253f ce3f 843f 36ac 423f 0958 a23f
00000020: 05c1 4d3f 5308 1a3f d8eb 563f
0.77794355 0.74938446 0.78173923 0.9530193 0.64732 1.0331972 0.76044023 1.2683116
0.8037265 0.6016895 0.8395362

bn5.bias f4 [11]
00000000: c26e 7b3f f4a6 533f 53b1 c23d 273e 553f
00000010: be4d 5d3f 9bb2 c43d cfb3 8b3f a91a 7dbd
00000020: b800 443f c6de a3bf 974b 1d3f
0.9821588 0.82676625 0.09506478 0.8329796 0.8644675 0.09604379 1.0914248 -0.061793003
0.76563597 -1.280236 0.61443466

bn5.running_mean f4 [11]
00000000: 8879 8e3e 9f10 993e bbeb 5a3f 9cc9 b7be
00000010: e04a 3e3d f0a8 a1bf 277d 483f 908c d4bf
00000020: 8838 94bf d063 a23d 9d6e dd3e
0.27827096 0.29895493 0.85515946 -0.35896003 0.046458125 -1.2629681 0.7831597 -1.6605396
-1.1579752 0.07929194 0.43248454

bn5.running_var f4 [11]
00000000: f48c d63f 4c4b 853f c115 1c40 a333 2440
00000010: 914f bb3f 5085 2140 4ffc 913f 5bad 9540
00000020: f6f3 a83f a261 053f f91d 0940
1.6761765 1.0413604 2.4388278 2.5656517 1.4633657 2.5237617 1.1405123 4.6774116
1.3199451 0.521021 2.1424544

conv6.weight f4 [16, 11, 7]
00000000: 8d43 993d 0c3d c83b d447 a73c 60ca 66bd
00000010: 6063 fbbc 0534 fbbc 6ebd 043e b2c2 803d
00000020: fe46 953d 8a1c e7bc 0373 f6bd 083c 10be
00000030: 6feb dc3d 6e29 e33c bf66 30be 636d 3bbe
00000040: 1701 a9bd ffea 7ebd 9016 b5bd 1087 cdbd
00000050: b728 e4bd 3d96 86bd 7b37 793d f31c 233e
00000060: 5985 973e d3af 163f f74d 083f 79c2 623e
00000070: e1d0 3f3d a0f0 2f3c 834a 8c3d 7d26 833d
00000080: 71bd 1f3e 508d 873d d276 473d 275d 25bb
00000090: 1df2 4d39 f442 353c 8ccd 043e 194f 1f3e
000000a0: a46d 143e b21c 1d3e 79bf ccbd 2b0b 9fbd
000000b0: f34e 87bd 8bf3 61be 35dc 35be 2018 10be
000000c0: 1b29 01be 29c4 333c 1915 0d3d e45e 2dbd
000000d0: e5fd 6d3d 2f22 b93d 2e37 543c 7beb b43d
000000e0: c791 60bd 9c23 003d d0b9 2a3c ac3e 1a3e
000000f0: 1a20 fb3d ca10 ed3c c214 96bc ab2e 9ebd
00000100: 6646 03be 42f8 f2bd a7df 013d b0ee c83d
00000110: 7cf8 41bc dfa9 5ebd 66bf e7bc a9e4 373d
00000120: b806 08bd 035e aa3b e176 a53b ea98 14be
00000130: f6d2 0b3e ff11 233e c782 833e 3fe2 65bc
00000140: d6d2 babe c01c 45bd b1cd a8bb 8fc6 cdbd
00000150: 914c bd3d e78f 03bd 00f0 8cbd a6f5 debd
00000160: 8609 4bbc 01fa 5f3d f349 42bc b5c7 95bd
00000170: 9f0e 0bbe 29a7 d23d 5cc6 9e3d d442 93bd
00000180: f90b 9139 7400 1dbc 4227 df3d 5a8f 64bd
00000190: 4049 353d 4290 d03d 3240 c13d 5e54 d5bc
000001a0: 6713 26bd 3e41 243d ead8 cd3c e042 93bd
000001b0: 0aae debd cfe9 5fbc 95a4 6dbc 11c6 fc3c
000001c0: e15d 8ebe 99f7 75be 2e57 2a3e e5b4 a63e
000001d0: 02c6 723d 7f81 a43d 5a0f 9a3c 1179 ad3d
000001e0: 2031 9d3d f133 69bd 8774 b6bd adfb b13c
000001f0: 09c1 0a3d 976a bebc 893b b6be 2845 b0be
00000200: 489e ddbb f141 963e bc1a 623e 2197 e73b
00000210: 28c5 483d d0d2 9fbd 33ab 11be ccf4 fa3c
00000220: 4c6b f93d 3118 18bd 6566 503d f2ff 2ebd
00000230: bad9 b03d 06cb 553e d8ff ce3d 430b 883e
00000240: 5f84 593e ad6b f53d 8280 2b3e 20c1 fe3d
00000250: 795a 343e 4123 8e3e 7628 18be 4089 adbd
00000260: 5263 8c3d 7bc8 ccbc ecdd b63c f67b d739
00000270: ddeb 08bd f1ec a43c 2c21 0d3e 514f 20bd
00000280: 3c9a 733b 7698 d33c e868 b53c 5a05 3cbd
00000290: 6598 87bc e89d 873b ae97 3bbd 6519 89bd
000002a0: bedb 03bc 0a95 563d 3799 b4bc b5c1 df3d
000002b0: 7f5a 523d d91f 903c 7814 08bd e339 813d
000002c0: f8e1 a3bc 0386 f1bd 010e 5abd b40f 77be
000002d0: 42e2 f2bd 839e 04be 2e03 b7bc 97b3 bcbc
000002e0: 0fca 87bc 02f8 aebd 38d0 90bd 45b5 01bb
000002f0: 9d8f a7bc eef6 f63c 453a e23c 1b80 5b3e
00000300: f422 2f3c a039 c03d b05c 933d 1ac9 513e
00000310: 9641 bbbd 8109 fc3c 14f7 0bbd 6cb4 15bd
00000320: 81da 5bbd e379 3aba 98f0 22bd 6210 c33e
00000330: 8a76 953e 9c72 983e acdb 813e e6fe a13e
00000340: 4b30 083f 2cdc 413f 8d94 b33d e554 853d
00000350: 9a11 33ba a3aa 0b3d 9fca dc3d 6e2d 223e
00000360: c19f ab3d 19bd 7bbc 739f 14bb 6ab3 c9bc
00000370: 4026 373a 416b 953c f0ee 843d d5ad 1f3d
00000380: 35ad 3dbb 2c30 4d3c 2777 143d 18b6 3b3c
00000390: c823 5a3e 4f05 a93d 3e4e 4d3b aeb3 25be
000003a0: f98e 3bbd 0aef fbbd 79fe f73c c158 3bbe
000003b0: 5911 70be 8738 b6bc 64c3 5ebd 767d 0f3e
000003c0: 6835 9dbd 9c39 f3bd 7944 5bbe 16e3 e8bd
000003d0: 9d8e 663b 9822 b23d 9934 303c 4913 163e
000003e0: a958 173e 582e d33c 457a 09be 4e61 7a3d
000003f0: 6f67 263d e2e0 1abd 0dda 84bd b238 2abe
0.074835874 0.006110793 0.020419993 -0.056345344 -0.030687034 -0.030664453 0.12962887 0.06287135
0.07288931 -0.02821185 -0.120336555 -0.140854 0.10787093 0.027729716 -0.17226695 -0.18303446
-0.08252161 -0.06223583 -0.08842194 -0.10035527 -0.11140578 -0.065716244 0.060843926 0.15929012
0.29593924 0.58862036 0.53243965 0.22144498 0.04683006 0.010738522 0.068501495 0.064038254
0.1559961 0.0661875 0.0486973 -0.0025232525 0.00019640518 0.011063326 0.12969035 0.15557517
0.1449495 0.15342978 -0.09997458 -0.07765802 -0.06606855 -0.2206556 -0.17759784 -0.14071703
-0.12613337 0.010972061 0.03444395 -0.042326823 0.05810346 0.09039723 0.012952609 0.08833977
-0.054826524 0.03128396 0.010420278 0.1506297 0.12261982 0.02893867 -0.018320445 -0.07723745
-0.12819824 -0.11863758 0.031707432 0.09811151 -0.011839028 -0.05436122 -0.028289508 0.0448958
-0.033209532 0.0051991954 0.005049572 -0.14511457 0.13654694 0.15924834 0.25685713 -0.014030992
-0.3648898 -0.04812312 -0.0051514735 -0.10047638 0.092431195 -0.032119658 -0.06881714 -0.108866975
-0.012392407 0.05468178 -0.011858451 -0.07313482 -0.13579796 0.102857895 0.07752678 -0.07190481
0.00027665475 -0.009582628 0.1089616 -0.055800773 0.04425931 0.10183765 0.094360724 -0.026041206
-0.040545847 0.040101282 0.025127847 -0.0719049 -0.10873039 -0.013666584 -0.014504571 0.030856164
-0.27806 -0.24020232 0.16634819 0.32559887 0.059270866 0.08032512 0.018806148 0.08470357
0.076753855 -0.0569343 -0.089089446 0.021726454 0.0338755 -0.023244185 -0.35592297 -0.34427762
-0.0067632534 0.29347184 0.22080511 0.0070675765 0.049016148 -0.07803881 -0.14225464 0.030634306
0.121786684 -0.037132446 0.0508789 -0.042724557 0.08635278 0.20878229 0.10107392 0.26571092
0.21241902 0.11983428 0.1674824 0.124391794 0.17612638 0.27761272 -0.14859185 -0.08473444
0.06854881 -0.02499794 0.022322617 0.00041100354 -0.03342806 0.020132514 0.13782185 -0.039138142
0.0037170788 0.025829535 0.02214475 -0.04590354 -0.01655216 0.004138697 -0.04579895 -0.06694297
-0.008047996 0.05238823 -0.022045715 0.109256186 0.051355835 0.017593311 -0.033222646 0.06309869
-0.020005211 -0.11793139 -0.05323601 -0.24127084 -0.118595615 -0.12951092 -0.022340383 -0.023034854
-0.016575841 -0.085433975 -0.070709646 -0.0019791883 -0.020454222 0.030147042 0.027615676 0.21435587
0.010689486 0.09385991 0.07195413 0.2048687 -0.09143369 0.03076625 -0.03417118 -0.036549017
-0.05367518 -0.00071134995 -0.03978023 0.38098437 0.29192 0.2977494 0.2536291 0.31639785
0.5319869 0.7572658 0.08768568 0.06510333 -0.0006830931 0.03409828 0.107808344 0.15837643
0.0838008 -0.015364909 -0.0022678047 -0.024621684 0.00069865957 0.01823962 0.06490886 0.03898414
-0.002894235 0.012523692 0.036246445 0.011456989 0.21302712 0.08252966 0.0031327154 -0.16181824
-0.045790646 -0.123014525 0.03027271 -0.18295576 -0.23444118 -0.022243751 -0.054385558 0.14012703
-0.07676202 -0.118762225 -0.21412839 -0.11371438 0.003518022 0.086980045 0.010754728 0.14655794
0.14779915 0.025778934 -0.13425548 0.061127953 0.040625986 -0.03781212 -0.064869024 -0.1662319

conv6.bias f4 [16]
00000000: d619 4fbd 9aee 853d a44c 45bd df4a 0f3d
00000010: b5a7 dd3a 97b3 d1bd 35bd 33bd ca68 9c3d
00000020: b201 1d3d 9978 0fbd 14ea 5bbd 4da0 cdbd
00000030: 1039 d63d 9fc3 cabc 6990 adbd fa5a 813c
-0.05056175 0.0653965 -0.048168793 0.034983512 0.0016910943 -0.10239332 -0.043881614 0.076371744
0.038331695 -0.03502712 -0.05369003 -0.100403406 0.104601026 -0.024751483 -0.0847481 0.015790451

bn6.weight f4 [16]
00000000: c6b6 943f 5221 2f3f bb27 293f cf4f 253f
00000010: 03bb 553f 70c8 5f3f 5e0a 583f a256 5c3f
00000020: 3743 fe3e c1a7 163f c634 293f 2546 323f
00000030: 1b0c 743f ac88 f43e 030f 743f ecf6 893f
1.1618278 0.6841022 0.6607625 0.64574903 0.8348848 0.8741522 0.8439082 0.8606969
0.49660656 0.5884972 0.6609615 0.6963828 0.9533097 0.47760522 0.95335406 1.077848

bn6.bias f4 [16]
00000000: 234d 633d 3243 423e 38b7 0fbf b763 ca3e
00000010: 9f29 f9be 00ec 3ebd f80c 2cbf f58f a63c
00000020: ea03 643f ff45 413f dbad a03f 9b6e 90be
00000030: 23df 573c 9ff8 d23d bfab 3ebf 2279 eb3c
0.055493485 0.18970945 -0.56138945 0.395292 -0.48664567 -0.046611786 -0.6720729 0.020332316
0.8906847 0.7549743 1.2553056 -0.28209385 0.0131757585 0.10301327 -0.74480814 0.028744284

bn6.running_mean f4 [16]
00000000: 5c7c c23f c70e 683e 88ee 4a3f e82f 23c0
00000010: b0ee 1b3f 1146 33bf cc35 973f e83f 14be
00000020: 7d36 833c 2e0e d0bf 201d 0ebf 09ab 733f
00000030: 63ad 3540 e069 0d3e 39aa c83e 8db8 13bf
1.5194201 0.22661887 0.7927022 -2.549799 0.60911083 -0.7002879 1.1813293 -0.14477503
0.016017193 -1.6254327 -0.5551319 0.95182854 2.8387077 0.1380992 0.3919237 -0.5770348

bn6.running_var f4 [16]
00000000: ebc3 7a40 d946 8b3e d722 ab3e 171a 913f
00000010: 1349 c83e ccb1 2e3f 54b3 0d3f 7a2b ba3e
00000020: da8d 913e ec92 5e3f d17c c93f 9231 c23e
00000030: b07e 6f3f 6927 e13e 58a9 df3e 7533 c340
3.918208 0.2720249 0.33425018 1.1336087 0.3911825 0.68240047 0.5535176 0.36361295
0.28428537 0.86942935 1.5741216 0.37928444 0.93552685 0.4397538 0.43683887 6.1000314

conv7.weight f4 [16, 16, 7]
00000000: 1b33 6b3e f6d2 c53e 7de6 d33e 0f3f 013f
00000010: 8e7d cf3e 5335 6e3e 48c5 0c3e 1a86 683c
00000020: eda3 203d 95ce d7bd ba23 33be 812b 4fbe
00000030: 26c8 4fbe 2373 87bd 8d00 813e c445 403e
00000040: c256 423e 6a68 c73d 1a65 363d 7c70 82bc
00000050: b8aa dfbc 256a 48bc c924 9ebc 023e 15bd
00000060: f1ed f4bd 9f22 5dbe 3b8b 09be 66f6 cdbd
00000070: d4d6 e53c eade 453d b1b4 203e cac1 5d3d
00000080: 814f 433d 9fd2 3b3c cb4d 073e 9db8 ed3d
00000090: 4aa9 b83d bf20 c43d e06a e33c 410f 8bbd
000000a0: 3ba9 fe3a 926b d2bd 6968 ae3d 90fa 323d
000000b0: 0298 f53d eb2f 6a3e d1f6 4e3e b0e4 413e
000000c0: 62e5 e03b daa3 5d3d 3ac4 8a3d 5aa7 603d
000000d0: 533b d23d 716d cf3c d709 7d3d deec 943d
000000e0: 2dbd aebd 13c0 99bd 9143 e0bd 7282 b1bd
000000f0: 2719 5d3d c027 cc3d fe0b fa3c 658c 3e3d
00000100: 6042 bf3a 35c4 f8bc 7ad1 083d 5750 6a3d
00000110: 993f 3b3d 0408 39bc 2e07 53bb 27c0 143c
00000120: ac8a 093d 002a 1f3e 5c29 533d 18e3 b53d
00000130: b0e8 b0bd 645b b23d 6539 d03d 866d 1e3e
00000140: 0f94 ac3d 87b9 083d 98d9 373d 7586 953d
00000150: bdf1 e33d 8a11 c93d fcac 4c3d b04b 2b3d
00000160: a823 1ebd 9947 b33a 7c64 263d 53a1 01bc
00000170: 4f6b cf3b a768 81ba 24a5 3f3d 6038 4e3d
00000180: c919 933d a73d 8fbd 79e1 e8be 468a 9cbe
00000190: 327c 743d 0049 ab3e f914 4d3e bd1a 32bd
000001a0: f81c 60be 71c6 a6bd a1dd 9cbd a164 27be
000001b0: ed5d 1bbe 5222 38be 5d3e 57be e18b 42be
000001c0: 2350 55bd c93e ce3c 32e6 c23b 450c 9abd
000001d0: 8b32 9dbd 151d 88bd 3d13 80bd 1515 063e
000001e0: 21e9 153e 4d7a 613e 6575 443e 5af4 b03d
000001f0: 7df2 0d3d 9804 b8bc e092 c03c 3cb5 b4bc
00000200: 563d e1bd 46d6 35bd b14b 3ebd 0d12 4bbd
00000210: 832a 9a3b 50bc 193d 3390 bdbc 7fd6 c13c
00000220: 9169 3abe 6f26 4ebe 20b6 4cbe f2dc 7ebe
00000230: 5aab c93d bcb9 1d3d a9f1 1e3a fe1d 72bd
00000240: baa0 d0bd b8cd 56bd ee74 bdbd b93c 1cbe
00000250: c9f1 10be cdd4 c5bd 007f edbd 1469 9cbd
00000260: b9df a3bc 10f4 d4bd 11bc 273d f3cb b8bd
00000270: 368e e6bd 8c24 5dbe 19a8 2bbe 4c38 82bd
00000280: 265e 31bd 247d d63c 69fd 0a3d de5d 533d
00000290: 347e d43d 7ef3 7e3d f1e4 883d 17c8 823d
000002a0: 8cae 563c b2dd bf3d 1fd9 013e 5dfe 973e
000002b0: e213 683e 5b5f 223e 091c 173e cb7a 26bc
000002c0: a30e 22be cdae 31be 0c7c 8dbe e1eb 82be
000002d0: 3265 17be 1c7e 8ebd 1f8c 6d3e e290 563e
000002e0: 6f89 7c3e b8ad 9c3e 7a18 163e 4401 d33d
000002f0: a656 5a3d bcb7 02bd 6ccc 5abd 27a6 0cbe
00000300: 7524 5cbe 78ef 66be a7bb 48be df55 35be
00000310: 3531 623e fb4f 4b3e c62e 6c3e a120 5b3e
00000320: 7905 813d 93f3 613d 2b48 023d a41e 973c
00000330: 943e 89ba bb01 f6bc 3800 5abd 6d93 9cbd
00000340: 4662 65bd a432 30bd 1036 7dbb 14b3 1bbd
00000350: 7b31 f0bd e9a0 e5bd cad0 fabd 183c e1bd
00000360: e54f b6bd e9a7 5e3d 2753 843d 6a4d 823d
00000370: 389f 0b3c 18f3 3bbc b28e 76bd 2476 5b3d
00000380: 2c13 7abe 3670 07be 5b50 13bd add7 32be
00000390: e173 4cbd 4141 03be dc86 77be 26ba 2b3e
000003a0: 0880 1e3e bfb0 0e3e e436 4d3e 3316 343d
000003b0: 0519 cf3d 5d00 d13d e32d 3ebe f7f5 19be
000003c0: d2c0 a7bd 5678 72be 4ea2 e5bd e87a 1dbe
000003d0: f4a9 5abe 39af a6bd 8375 49bc 0e92 173d
000003e0: d3eb e2bc bfc4 0dbd 53cf 7bbd 3d47 b5bd
000003f0: 309f 2e3c 5cf5 773c 9281 8abc 2c7e 38be
0.22968714 0.38637513 0.41386786 0.50486845 0.40525478 0.23262529 0.13747132 0.014192129
0.03921883 -0.10537449 -0.17494097 -0.20231439 -0.20291194 -0.066137575 0.25195733 0.18776613
0.18978408 0.09736712 0.04453001 -0.015922777 -0.027303085 -0.012232338 -0.01930465 -0.03643609
-0.11959446 -0.21595238 -0.13432018 -0.100567624 0.02805654 0.04830829 0.15693928 0.05413989
0.047683243 0.01146379 0.1321327 0.11607478 0.09016664 0.09576558 0.027760923 -0.06790019
0.0019429097 -0.10274424 0.085160084 0.043695986 0.11991884 0.22869842 0.2021134 0.18934894
0.006863282 0.05411134 0.067757085 0.0548471 0.102652214 0.02532074 0.061776962 0.07271741
-0.08532176 -0.075073384 -0.10950387 -0.086674586 0.053979065 0.09968519 0.030523296 0.04652061
0.0014591925 -0.030366996 0.033402897 0.057205524 0.04571495 -0.011293415 -0.0032200324 0.009079016
0.033579513 0.15543365 0.051553115 0.08881205 -0.086381316 0.08708838 0.10167197 0.15471467
0.084266774 0.033380058 0.044885248 0.07301036 0.11130092 0.098177984 0.04996966 0.041820228
-0.038608223 0.0013677954 0.040623173 -0.007911998 0.006329931 -0.0009873108 0.04678835 0.050346732
0.071826525 -0.06994181 -0.45484522 -0.30574244 0.059688754 0.33454132 0.20027532 -0.04348253
-0.2188605 -0.081433184 -0.0765946 -0.1634698 -0.15172549 -0.17981842 -0.21019883 -0.18998672
-0.052078377 0.025176423 0.0059478516 -0.075218715 -0.07675656 -0.06646172 -0.062536694 0.1309398
0.14639713 0.2201931 0.19185407 0.08640356 0.034655083 -0.022463128 0.023507535 -0.022059076
-0.10998027 -0.0443938 -0.046458904 -0.04957776 0.004704775 0.037533104 -0.023140049 0.02366185
-0.18204333 -0.20131849 -0.1999135 -0.24888971 0.09847136 0.03850721 0.0006063232 -0.059110634
-0.10186906 -0.052442282 -0.09250818 -0.15257539 -0.14154734 -0.09659729 -0.11596489 -0.076372296
-0.02000414 -0.10398114 0.04095084 -0.09023275 -0.11257593 -0.21595973 -0.16763343 -0.06358394
-0.043302678 0.026182719 0.033933077 0.05160319 0.10375634 0.06224393 0.06684292 0.0638582
0.013103139 0.09368457 0.12680481 0.2968625 0.22663835 0.15856688 0.14756788 -0.010161112
-0.15825896 -0.17351837 -0.27633703 -0.25570586 -0.14784697 -0.06957647 0.23197983 0.20953706
0.24661802 0.30601287 0.14657775 0.10302976 0.05330529 -0.031913504 -0.05341761 -0.13735257
-0.21498282 -0.22552288 -0.19602834 -0.17708538 0.22089083 0.19854729 0.23064718 0.21399166
0.06299872 0.05516393 0.031807106 0.018447228 -0.001047092 -0.030030122 -0.053222865 -0.07645307
-0.056001924 -0.043017045 -0.003863696 -0.03801258 -0.11728188 -0.11212332 -0.122468546 -0.1099779
-0.089019574 0.05435935 0.064611726 0.06362422 0.008521847 -0.011471532 -0.06019468 0.053579465
-0.24421376 -0.13226399 -0.035965305 -0.17465086 -0.0499152 -0.12817861 -0.24172539 0.16770229
0.15478528 0.13934611 0.2004047 0.043966483 0.10112194 0.102051474 -0.18572192 -0.15035234
-0.081910744 -0.23678717 -0.11212598 -0.15378916 -0.21353894 -0.0813889 -0.012296083 0.037004523
-0.02770034 -0.03461146 -0.061477017 -0.08851478 0.01065807 0.015134182 -0.016907487 -0.18016881

conv7.bias f4 [16]
00000000: bd1f c13c fa5b 983d 48ed 74bd a012 d03c
00000010: 5dbd b2bd 7158 17bd 2baa 793b 41ad b13d
00000020: 1e47 d13c ea58 2abd 27d9 503b 9481 103d
00000030: b759 893d d1f4 51bd bcd6 93bd 6736 3abd
0.023574704 0.07439418 -0.0597966 0.025399506 -0.087275244 -0.03694958 0.0038095813 0.08675624
0.025546607 -0.0415887 0.0031867714 0.035279825 0.06706565 -0.051258866 -0.07218692 -0.04546204

bn7.weight f4 [16]
00000000: 47cb 8d3f afbb 343f dfb7 883f 5840 503f
00000010: 7a31 983f 6a21 5e3f 0e63 1c3f d4da 5b3f
00000020: fac9 4d3f 4e2b 633f 6793 463f 75d5 fd3e
00000030: 5dc8 883f b07e 263f 1685 133f 8976 e73e
1.107766 0.7059888 1.0681113 0.8134818 1.1890099 0.86769736 0.61088645 0.8588078
0.80386317 0.8873795 0.7756867 0.49576917 1.0686146 0.6503706 0.5762495 0.45207623

bn7.bias f4 [16]
00000000: 28a5 7ebe 3c81 1f40 2fc6 733f aa14 743e
00000010: d9f8 1b3f 4c6e c73e c41c 023f dffe 82be
00000020: 7d4a 86be 3889 3e3e ea74 57bf 0b4f a63e
00000030: 0f80 08bf 42da 3d3f 5263 2a3e 2c4b b8be
-0.2486769 2.4922628 0.9522428 0.23836008 0.60926586 0.38951337 0.5082514 -0.25585076
-0.26228705 0.18607032 -0.8416277 0.3248218 -0.533204 0.7416116 0.1663945 -0.35994852
